magpylib/_src/fields/networks/best_weights.pt (torch, 27442 bytes, 12 tensors)

linear1.weight f8 [24, 7]
0	0xbfb3fe6a23fd2193	-0.07810080889351516
1	0x3fd3e931b0b67442	0.3111080384931634
2	0xbf8cd11c01c51659	-0.014070719532024588
3	0x3f8cc10d89a4c273	0.01404009414963634
4	0xc00a0e723cad3c93	-3.2570538273208256
5	0x400b19c2022989a3	3.3875770729948314
6	0x3fc4a8329389fc0f	0.1613829822926793
7	0x3fe499c85b2b6922	0.6437722950607034
8	0xbfc62e3ae89ae66a	-0.17328583104772416
9	0x3fb2c5c1468ecb10	0.07333000156976888
10	0xbfa583f51a1706b5	-0.042022380289848206
11	0xc010363172956604	-4.052923002594529
12	0xbfddab778d554d7a	-0.4635905151564753
13	0xbfdb7fee7fb945a7	-0.42968332741755905
14	0xbfeaf8083aa068b2	-0.8427773613978131
15	0x3fbadbbb24fbe342	0.10491532948425422
16	0xbfaf4a8ce62f23c4	-0.061115649317407456
17	0x3f99ab2b986f061a	0.025067025355161567
18	0xbf8da6d0db0247b0	-0.014478332217809115
19	0xbff92902bff4a296	-1.572512388063989
20	0x3fd94ad8e5876d98	0.3951933137411401
21	0x3fa905789200b64f	0.048869865248303605
22	0xbfb1a6ec2e8df670	-0.06895328651986588
23	0xbfb427a932b796ea	-0.07873017776691041
24	0x3fc3f0153d681e68	0.15576425073981004
25	0xbfcdad776876eaa6	-0.23185627556616345
26	0x3fe17eb19222e2cd	0.5467155317520224
27	0xbff81b6b8d3c9517	-1.5066943661743772
28	0xbfd2d52e92509259	-0.2942615918021026
29	0x3fc40c90bc975269	0.15663346489477029
30	0x3fb5524aa6a521d7	0.08328692024691207
31	0xbfa38a3a74194aa7	-0.03816397349568961
32	0xc011f82d96f84caa	-4.4923614110040635
33	0xc008c4b7b5358185	-3.0960535199121204
34	0xbfd783ecfceda92a	-0.3674271078113117
35	0xc0104415b0d50bc9	-4.06648899364786
36	0xbfcd22737bf8f474	-0.227613864453733
37	0xbfc1da27279f2c48	-0.13946999964386664
38	0x3fc51b8809ffa153	0.16490269172869407
39	0x3fe27157f18059d5	0.5763358799766204
40	0x3f97ad7a5ad66575	0.023122703356056335
41	0x3fd7efe871c5b118	0.374017821412751
42	0xc0074a9028051e5b	-2.911407768875319
43	0xbfe0428d35fa014f	-0.5081239752035261
44	0xbfb574ba10033618	-0.08381235972338918
45	0x3fdfe16aa3fa6d5d	0.4981333352422633
46	0xbfe8163d4808b974	-0.7527147681155797
47	0xbfeace8671ff980e	-0.8377105928927919
48	0xc012d60b4c2181ab	-4.7090274711085085
49	0xbfdf5d74006ad1b1	-0.49007892647503143
50	0x3fe013bf7908309b	0.502410637274369
51	0xbfb08739c37383aa	-0.06456337949522487
52	0x3fc097f13e682862	0.1296369127961184
53	0xbf9dee5899f04c0d	-0.029229530711813157
54	0x3fea05a8a6f9e958	0.8131907712225184
55	0xbfcec3f3e6dd3aea	-0.2403550030962472
56	0xbfff964ad880f7b9	-1.974192472188845
57	0xbfea66286e200f5f	-0.8249704504855621
58	0x3fc8473e372b1117	0.18967416471253593
59	0xc012abe2bf832b9a	-4.667857162838937
60	0xbfa1a29f6e8269cd	-0.03444383834831264
61	0xbfc75f5c18f99c2e	-0.18259764880642265
62	0xbff922fda2e45f0e	-1.571042667672319
63	0x3fc16f3cdea85bcf	0.1362072074122964
64	0x3fc97e15d803109f	0.1991603188272437
65	0xbfebe970a12fa091	-0.8722460888066214
66	0x3fdecc7058900992	0.4812279572362509
67	0xbfb788b933c9135b	-0.09192998422902347
68	0xbf999bb7264dabe8	-0.02500806971822192
69	0x3fd1dbfdcca6ed78	0.27905220971634703
70	0xbf9f7a7092c4b120	-0.030740508039501013
71	0xbfaa528b56350857	-0.05141101291020849
72	0x3fb2d4b1a786f540	0.07355795230883633
73	0x3fb2b90d1fbc1e8d	0.07313615822578808
74	0xbfc490678071f748	-0.16065686961877135
75	0x40120fc059d897b8	4.515382198185698
76	0xbfbb1821ce46c0da	-0.10583697591823996
77	0xbfd1713192106b0b	-0.2725337911994507
78	0xbfd2d4c43ee761c2	-0.29423624175026586
79	0x3fcb7a07e1c20ab0	0.21466158412302638
80	0xbfd73043b2e466f0	-0.3623208281511401
81	0xbfcb3f315739d895	-0.2128659892948163
82	0xbfe043c25828e120	-0.5082713815564013
83	0xc01943d64cf386df	-6.316247179378222
84	0x3fe90a622f851024	0.782517521678987
85	0xbfc760c59eb04c42	-0.18264074562520888
86	0x3fadaca8429bb7f1	0.05795789540375996
87	0xbfac0011fd096a96	-0.054688036096839074
88	0x3ff41ae2a05e2bbc	1.2565637840623216
89	0xbfdfa7b6cfd086f7	-0.494611456817537
90	0xbfa436569198c181	-0.039477067254099836
91	0xbfb25acf8a09391a	-0.07169816131611065
92	0x3fe21003488f130b	0.5644546906629285
93	0xbfaf5d444a8bb675	-0.06125844392759642
94	0xbfcafe845e03de35	-0.21089224424916755
95	0xbfdbdabd767cba6f	-0.43522583552377275
96	0x3ffde9cdf021b98d	1.8695811634202955
97	0x3fbdcf15d4323bcf	0.11644112043926146
98	0x3fd1d997f16a899a	0.278905854948016
99	0xbfe9baae0809fe72	-0.8040380627644039
100	0x3fe4cf2ac30c53ff	0.6502889451536474
101	0xbfbb43a64caac5a6	-0.10650100108866542
102	0xbfffbf561f675ece	-1.9842129923544465
103	0xbfff43ed299b8ee8	-1.9540835976885607
104	0xc0010555353fd46e	-2.1276039276222525
105	0x3fee419e9b8a21aa	0.9455102002985332
106	0xc0042889e2fec3d5	-2.5197942480085467
107	0xbfd528cf56e72bd3	-0.3306158398306113
108	0x3fc2ef46fa14a679	0.14792716227502803
109	0x3fba333292ba02ff	0.1023437126368769
110	0x3fccd11fa98e3dcf	0.2251319482715943
111	0x3fe2e0f1bd5fac0c	0.589959020491166
112	0x3f9e4fec04b628a0	0.029601753032274858
113	0x3fcc4675b1a72a61	0.22090026068174765
114	0xbfcb502a80299201	-0.2133839727204219
115	0xbff8ae3f36e58bfc	-1.5425407547379555
116	0xbfaced15327b1b96	-0.05649629822942541
117	0xbfd7895482fd020f	-0.3677569655592671
118	0xbfb35dbb7d894c77	-0.07564899268008839
119	0xbfce60a5ea9af6eb	-0.23732446627939593
120	0x3fdaf945530f9e17	0.421464282144798
121	0xbf94a76fd700d1a8	-0.0201699709870852
122	0xbf75f0db6a11c7fb	-0.00535665234302662
123	0xbfbca0fa359ab5fa	-0.11183131989192666
124	0xc007099197ae1b43	-2.8796722269065937
125	0xbff552c4863d8492	-1.3327069515001182
126	0xbfe24c52b607dd92	-0.5718167834556189
127	0xbfe9ae48ed6f9ca5	-0.8025250089093744
128	0xbff346c87748fea9	-1.2047810229850404
129	0xbfdd19351b2e3ddc	-0.454663540404878
130	0xbfd08733e4f2c648	-0.2582521186660398
131	0xbfe286c64e6ee7f6	-0.5789519817255939
132	0xc014e01ed304de56	-5.218867585346365
133	0xbfdf62a2eab3d72e	-0.490395287706053
134	0xbfd80a1bfe7aad26	-0.3756170258663637
135	0x3fb4a75ebfd507b1	0.08067886527444902
136	0xbfb4520e6d6a40de	-0.0793770806433289
137	0xbfcfd47db2a2a735	-0.24867221090726735
138	0xbfe3117b75098910	-0.5958840642818206
139	0x40051b4fb31c875b	2.6383356087762144
140	0x3fd6b38511b428e9	0.35470701912767183
141	0x3fd5ae7840b146eb	0.338773787666567
142	0xbfb93fe13158a66f	-0.09863097624534033
143	0x3fb22a73ed0edf09	0.07096027886916202
144	0xbfeb1cae23b8fab6	-0.8472510049540094
145	0xbff01c68f4f35fa3	-1.0069360321412908
146	0xbfd297d0f03c7b92	-0.2905161233956558
147	0xbfcd3616a09f84ff	-0.2282131466190904
148	0x3fb604884f1d9ecf	0.08600665980849985
149	0xc01b048b5caa83e1	-6.75443787375204
150	0xbff761501be24212	-1.461258038445639
151	0xbfe041e13e132cfc	-0.5080419742966167
152	0xbfcd1f7dcc65e383	-0.22752354126330596
153	0xbfd2c41ca94c4fca	-0.2932197240163502
154	0x3fdee066884451e8	0.482446320603485
155	0xbfce0667789e6c54	-0.23457044019309825
156	0xbf8bf61691e016b8	-0.013652969671976364
157	0xbf7009805389b1e8	-0.003915311121641875
158	0xbffa3509ae45a703	-1.6379486854079353
159	0x3fca6b7d6d017062	0.20640533278026668
160	0x3fc5616ae6f69e65	0.16703544881351032
161	0xbfd852e18fa774f8	-0.3800586607811307
162	0xbfc0a9a26e2a23c9	-0.13017683390742565
163	0xc0000223082ec810	-2.001043380668314
164	0xbfe6c3c09d20477e	-0.711395556342026
165	0xbfc33155d4e3ce22	-0.14994309325230498
166	0x3fd6c5f73a6879f4	0.35583286956708027
167	0x3fda13467ac7ecb8	0.40742647161796297

linear1.bias f8 [24]
0	0xbff22239779d97b3	-1.1333555862888545
1	0x3fe1e3218428771a	0.5589759427273038
2	0x3fe3d6a16977669d	0.6199500141039668
3	0x3fe647d95ce7285f	0.6962706388960774
4	0xbfdbd3ad33f488dd	-0.43479471276999765
5	0xc000c55a88f7ef9e	-2.0963640881218017
6	0x3fe86d368405f54f	0.7633316591815545
7	0xbfe5341ae90b8868	-0.6626104880963455
8	0xbfda90506f25b0f3	-0.4150582395002537
9	0xbfe30fd49f89af88	-0.5956824413274129
10	0xbff9264c4e6e4f77	-1.5718501151759179
11	0x3fdcd09140ec730b	0.45022994365881236
12	0xbfe00da43d5b3b58	-0.5016652296415982
13	0xbffc1e7330307352	-1.7574340708153682
14	0xbfd593cf2cb55eee	-0.3371465622526405
15	0xc00034bd436daaeb	-2.02575161627225
16	0x3fbb36fa0fd19513	0.10630762945364251
17	0x3fe3bd3e2834a82b	0.616850927855244
18	0x3ff11d6a3f9074da	1.069681404397946
19	0x3fe1195ef874eaad	0.5343470432920491
20	0xbfd54bb6eaa07a90	-0.33274624741344727
21	0xc000c865018c5112	-2.0978489037462476
22	0x3febcb47114610c5	0.8685641610504936
23	0xbff8c2efa0c26a67	-1.5475918082871887

linear2.weight f8 [48, 24]
0	0xbff2371bbff1adab	-1.1384541986288734
1	0xc00924d6ee16db3d	-3.1429880715108127
2	0x3fd8d612fa295e7e	0.38806604795306743
3	0x3ff0494a14901fd2	1.0178929141275046
4	0x4014221ebbfd67fa	5.033320367185292
5	0x3ff6d3ba99172ad6	1.4266916256043962
6	0xbfaad2ae0c2acbb9	-0.052388609872103094
7	0xbfe2e0735e2d7199	-0.5898987616924841
8	0xbffb2e2553b715c8	-1.6987660665630404
9	0xbfd1bfdd1d5348b8	-0.27733543266107175
10	0xbff25c84457d8043	-1.1475870813810765
11	0x3fe9fbfdb9ab2ff9	0.8120106340734302
12	0x3fdf7c7980627259	0.49197232759050774
13	0xbfe60a78d5d2a6b5	-0.6887783218600904
14	0x3fc1dfdfac9e48cb	0.1396445839751038
15	0xc00946e2182f299e	-3.1596109284775613
16	0xbfe8ca58bebb9966	-0.7747005200624641
17	0xbfd5b39f65811b98	-0.3390882960560986
18	0x3ff29a201cad7404	1.1626282806603294
19	0xbfe775091273c988	-0.7330365524669995
20	0x3ff7cd3bffc787b9	1.4876060477622401
21	0x400007ed0534423d	2.003870049149809
22	0xc0058a6e272af497	-2.69259291267242
23	0xbfe1923f5337f6cd	-0.5491024613727064
24	0xbfe29872280f9946	-0.5811091215553368
25	0xbfe365a75443ab88	-0.6061588903224768
26	0x3ff5283d57735a64	1.322324124912165
27	0xbfe084cd3fc52c3f	-0.5162111516486972
28	0x3fe1626f26d7c681	0.5432658919000489
29	0x3ff8d24999cebd14	1.5513397224529557
30	0x3fdad5fc915c5fd7	0.41931070514101293
31	0x3fe7b932ad92f35e	0.7413571729772277
32	0xbfe21a67ae43b5ab	-0.5657232669452034
33	0x3fe1a00526055942	0.5507837050052233
34	0xc00029a86147c59d	-2.0203406906154684
35	0x3fd30fa2176a50b9	0.29782917296075656
36	0xbfb23975e8126558	-0.0711892787534415
37	0xbfe370ea441a7eec	-0.6075335817476719
38	0x4003d243fe3447bf	2.477668748827426
39	0x401aed26d92c63a8	6.731593507131869
40	0xbfd83f73a583f183	-0.3788727871285788
41	0xbfd51ae2b88e1ae3	-0.32976596854170576
42	0xbff1ebdee0c16676	-1.120085599852613
43	0xbfc0c319affcf3d2	-0.13095398991745683
44	0x3fce7be967033c3f	0.23815648584283797
45	0xbffb0074c663cbbf	-1.6876113652804035
46	0x3fbc1902602aa60d	0.10975661132638255
47	0x3ff6db6dda5f4e74	1.4285715608756648
48	0x3fd2347a16fde3bc	0.28445293660439197
49	0xbffd3f55a24efd37	-1.8279625263383659
50	0x3f8c715705794f4c	0.01388805375533022
51	0xbfdfdaa1ee01ae69	-0.4977192711146246
52	0xbfe295ec440e9af4	-0.5808011368979735
53	0xbfecc4e2433b7858	-0.8990336716776808
54	0x3fe4bee5ecf2a7c4	0.6483029964340337
55	0x3fd4e72d8673e3b0	0.32660997514863777
56	0xc00336ae6395d596	-2.401699808130341
57	0xbff152eab3e20959	-1.0827433611562667
58	0xbfbbc00a1fe8f7e6	-0.10839904097608119
59	0xbfd9e3f53e36b82c	-0.4045384509616976
60	0x3fc75a0fc3cb6aa4	0.18243596134455686
61	0xbfd293857350806e	-0.29025398503473
62	0xc003a45c3d53892c	-2.4552540579908477
63	0x3ff78629062b0758	1.4702539673748642
64	0x3fefa1ff0d3ed0e0	0.9885249384592747
65	0xbfc57e3c9079429d	-0.16791493467691945
66	0xbff3ac5ea4faa255	-1.2295824474805574
67	0xbfa09c9d0ad2c2ce	-0.03244486577148607
68	0x3fd60408edeb6b3b	0.34399626955353185
69	0x400aca2979417cb3	3.348711917220123
70	0xc0002074822e01b0	-2.015847222355852
71	0xbfe71ab7e6b3ac4e	-0.7220115190406291
72	0xbfadfcf75c91bfa0	-0.05857060437199313
73	0x3fa099883c9136c6	0.03242135753008095
74	0x3fc2e5947f41dec3	0.14763122762427913
75	0xbff18b20e14f3d5d	-1.0964669037965316
76	0xbfd84bf1419b6449	-0.3796351566975927
77	0xbff744248788b775	-1.4541363996790697
78	0xbfd2352e7422742d	-0.28449593869464956
79	0xbfdf1d0150232284	-0.4861453325834548
80	0x3fda36da02da81e8	0.40959787634531475
81	0xbfca01bb9f62f8e7	-0.2031778839354452
82	0xbfbea16dec581e6c	-0.11965071697351853
83	0x3ff21e9ec3a0a7fa	1.1324756280614552
84	0xbfdce8f80a0ff9b6	-0.4517192934289612
85	0xbfe15c815959e7d2	-0.5425421471729754
86	0xbffb897d1675f26e	-1.721066558587292
87	0xbff9e97a2c7675c3	-1.6195012795281947
88	0xbf827457dfd17ff6	-0.00901096965588975
89	0xbfe8f3ed675179c0	-0.7797762887892574
90	0x3fe771ee55e2ddbc	0.7326575925316585
91	0x3fc1876c476de2e1	0.1369452809119798
92	0x3fe392df5a5d0ab7	0.6116787686263113
93	0x40048258fa573c28	2.563646274363709
94	0x3fd29fd2008c3723	0.2910046582554619
95	0x3ff159c2e019e2c6	1.0844143632840981
96	0x3fd70ea418a5de54	0.3602686157896404
97	0x3fea0d4a6f0ba524	0.8141224068505477
98	0x3ff4e4bc511449a6	1.3058436553152233
99	0xbff0e44e61e7f601	-1.0557388138253148
100	0xbfd94cb66f36c183	-0.3953071676324031
101	0xbfac77115eca6fdd	-0.05559591562379727
102	0xc000c3c4bf986641	-2.0955901115783324
103	0x3fe6146bb82ab556	0.6899927708633793
104	0x3fa825f5210a713c	0.047164593013095474
105	0xbfc5f8caa2c3f110	-0.1716550154450336
106	0xbfec1f61696d045a	-0.8788306292627894
107	0x40085f83154c7ac6	3.04663674010894
108	0xc00caf205b577b69	-3.5855109344551477
109	0xbfe9c580c98bf985	-0.8053592621288749
110	0xbff94bd1e85c11cd	-1.5810107304142662
111	0x400e572bb8e182eb	3.7925638622112863
112	0x3fd2e2bee2c67600	0.29508945604342784
113	0xbff246a80b566e91	-1.1422501032710992
114	0x400b5c961e864396	3.4202082047199367
115	0xbfb92bf892b29549	-0.0983271940372862
116	0xbf9ae4cd75b25b38	-0.0262634375654571
117	0x400fd15dfbdebd4b	3.977230041251152
118	0xbff92b401549a64a	-1.5730591613340885
119	0x3ff2848d94512bbf	1.1573615831027693
120	0xbfa10c2f7da86acd	-0.03329609307202972
121	0xbfc54ba92e6a9fce	-0.16637148634367666
122	0x3fac6f646cfc7ae9	0.05553735571287694
123	0x3fd18f750389381f	0.27438092561067323
124	0xbfe0fa75b011b815	-0.5305736960269792
125	0x4005cc06ab50ce0e	2.724622095492811
126	0x3fe3622bcb096a79	0.6057337728082778
127	0x3fce8ec559a6c437	0.2387320220709925
128	0xc00568fb4fecabb7	-2.676260589990729
129	0x3fd50fcba2bbbba4	0.3290890778725333
130	0x3fb8f7e5c2129d45	0.09753261554816557
131	0xbfe9fe43bbb40d76	-0.8122881570892975
132	0xbfd914703f7bc70c	-0.3918724651294816
133	0x3f7550e63cbad4ad	0.005204104770816159
134	0xc00176993a040a41	-2.182909444092076
135	0x400ae856d5cf6bb3	3.363446874992826
136	0xbfe2d736d579d27c	-0.588771264023833
137	0xbfe7081a8ca225ed	-0.7197392222162172
138	0x3fd75cdb128242e2	0.3650424652815173
139	0xbfd767c7a02c07b2	-0.3657092155627836
140	0x3fe3378f0fdd897b	0.6005320844526943
141	0xbff25a803c22591f	-1.147094950579749
142	0x3fd3957b80a8cbcb	0.30599868358984555
143	0x4004fe94ef9d47a3	2.6243075103638644
144	0xbfcf19f3407c4d4b	-0.2429794373389121
145	0xbfe6444294c4e778	-0.6958325296065899
146	0xbf82aa16c44010f9	-0.009113481391985522
147	0xbfdfcb5317bf65b8	-0.4967849475775341
148	0xbfc03d9ebe014b1f	-0.12688049581137137
149	0xc003352c8b7fbff8	-2.4009638689385575
150	0x3fea4613a4a99182	0.8210542884885828
151	0x3feea05337a6899d	0.9570709311413342
152	0xc00703a8c0da5d60	-2.8767867151870377
153	0xbfc0b7f5ada64c50	-0.13061400393471212
154	0x3fc73c5859aa3af3	0.1815290868584821
155	0xbfe7f1df17bd6e7c	-0.7482753242179139
156	0xbfe02aaeada39db8	-0.5052102462186019
157	0xbfdbcdefc2234ea7	-0.4344443698766817
158	0xbfed3346a86a218f	-0.9125092782351646
159	0x401dec9bec40218b	7.481063548483131
160	0xbfde1271b4723d9a	-0.4698757421656069
161	0xbfd804184907cd3b	-0.37524993068582874
162	0x3ffc609f9a2948f4	1.77358970851179
163	0x3f7aa7c74d651b4b	0.006507662319853956
164	0xbfc1d31ff511b911	-0.13925551859160426
165	0xbff4910494df253d	-1.2854047599124236
166	0x3fd117efedbe328c	0.26708601204953974
167	0x3fdd7182d737bea2	0.46005316750868464
168	0xbfe58855a1eef727	-0.6728923952830187
169	0xbffec8e1af804593	-1.9240433555135936
170	0x3ff319c2c9eb346a	1.1937892806484123
171	0x3fd3a96dfdebb526	0.30721616551348274
172	0x4002950aad0da210	2.3227742690835456
173	0xbffe735e95599276	-1.9031663736324425
174	0x3ff0c1c891dd74b4	1.0473104188779816
175	0x3fb284f79149130a	0.0723414163304136
176	0x3ff97a6fb83da4db	1.5923917004495738
177	0xbfe05658b234ee1f	-0.510540340480876
178	0xc00b07e89879af8b	-3.3788616096625836
179	0xbff3140afc9cc4ba	-1.1923932902976007
180	0xbfec2a6a4442d101	-0.8801776250097931
181	0xbfe9d1062232111a	-0.8067656200296682
182	0xbffae69877143a30	-1.6812977458499851
183	0x3ff46945559533f9	1.275700887973697
184	0x3fe1edda8b7b42fa	0.5602848743675104
185	0xbfd7d59d1fe2f3a7	-0.3724129496948145
186	0x3fd7423c7516b13b	0.36341773447454145
187	0xbff1bea27b517e8f	-1.1090416733858637
188	0x3ff2b3744cb5a0c6	1.1688120838608014
189	0x4003fbfe9a2d45d0	2.4980442090097554
190	0xbfca24a3f1c69952	-0.20424317651231633
191	0xbfc2c9f63b4e3ecd	-0.14678838630469784
192	0xbfe4e019c6113e28	-0.6523560398581525
193	0xbfe84d4a3501f596	-0.7594347987466559
194	0xbfc3e8096c1aecad	-0.1555187013490004
195	0x3ffae0c6a3d26959	1.6798769377988576
196	0x3ffb0b7a69b19b9c	1.6903022888816173
197	0x402d5c1851969fc4	14.679873036991815
198	0x3ff246f355856249	1.1423219051995537
199	0xbff43bdbf5ae66b0	-1.2646140667842865
200	0xbfeebc2d77cea2ac	-0.9604708995803626
201	0x3fcfa4a7c2b338c0	0.24721238142814705
202	0x3fdaab89652491b6	0.41671976926070486
203	0x3fe6ea84a7ec9b14	0.7161277084131563
204	0xbffd85a513954d50	-1.8451281323403528
205	0x3fea027e2ada51dc	0.8128043019265152
206	0xbfede271be45df3d	-0.9338921276348412
207	0x4021c645e4a3c019	8.887251992215214
208	0xbfdccce998e91886	-0.45000686581295957
209	0xbfd53b628207ac3a	-0.33174956033935
210	0xbffb006d18133104	-1.687604040186728
211	0xbfdcf3c1dc7fffc5	-0.45237776311114103
212	0x3ff70e84d66d521d	1.4410446525627159
213	0xbf85d9dff1156c48	-0.010669469399252077
214	0x3ffc8fd9f06661ef	1.785119952261194
215	0x3fc7d722bf058cd4	0.1862529213641212
216	0x3fd3c8017dff7850	0.30908238701329527
217	0xbfdb3128a0eb7892	-0.42487540926766443
218	0x3fe6558fb6b8aa66	0.6979445046211594
219	0xbff9d2456731f4f1	-1.6138357192097
220	0xbfe10fbf53d8d49b	-0.5331722867619136
221	0xc0105d57ec538cd6	-4.091155712699409
222	0x3fe7376778d7acd7	0.7255132065014561
223	0x40032755a19e005a	2.3942062975257103
224	0xbffbfdd7f7520b22	-1.749473539443621
225	0xc0099ee7480bae11	-3.202589571815914
226	0xbfa60025a08bacf0	-0.04296987137589692
227	0x3fb279fee674ea6d	0.07217400671371772
228	0xbfe20f8bf4b78d84	-0.564397790873429
229	0xbff8138d870974c1	-1.5047736430054075
230	0xbffe3b9b846f3a88	-1.889552609750952
231	0xc000df20fc11f446	-2.108949631975096
232	0x3ff137e02d57095e	1.0761415263264875
233	0x3fdbbbf842ba240b	0.43334776417083337
234	0xc000d598b39bc5ad	-2.104295161429681
235	0x3fd85a4a8a88e70d	0.38051093605791736
236	0xbfe7c727d361880a	-0.7430609825644308
237	0x4017c26e2e0fdc0f	5.939873428075784
238	0xbfd2e1315ae22554	-0.29499467730837137
239	0xbff3f07dbd122eee	-1.2462136636340193
240	0xbfe10ce45490b8f1	-0.5328237201372571
241	0xbfc641f775770027	-0.17388814197147548
242	0x3fd45f37c92e49e7	0.3183116402298353
243	0x3fecb0982746a973	0.8965569274053408
244	0xbfe2574d50b5d851	-0.57315698398339
245	0xc0118c93060ffa2d	-4.387279600835012
246	0x3ff0e13017c4a527	1.0549775055354276
247	0x3fea3e7e694c769b	0.820128636991018
248	0xc00c726327d8bb3f	-3.5558531868950065
249	0xbffafedb85b6fad4	-1.6872210715516092
250	0xc00a869b5f9008fb	-3.315726038535215
251	0x3fd9e41419ad4699	0.40454580791002
252	0xbff05984017a6ef7	-1.0218544061416972
253	0xbfa2dd54d2069b41	-0.03684487403670867
254	0xbff9e7c8e8ddf7be	-1.6190880867356863
255	0x4015889cc9f275fb	5.383410602019917

linear2.bias f8 [48]
0	0xbfe3c7fdb670bc65	-0.6181629718102043
1	0xbfd065fb517b0a9a	-0.2562244697293551
2	0xbfeec099f1b14d22	-0.9610109062727228
3	0x3f93d7825f39b332	0.01937679010591182
4	0xbffe0c2412bfbf43	-1.8779640896209038
5	0x3fbfb47fea9d33f2	0.1238479564464823
6	0x3fae8bc49e226ccb	0.05966009550430725
7	0xbfd757125185531b	-0.36468942605033455
8	0xbfeefafc6403b267	-0.9681379273802805
9	0xc004204fb7ef5875	-2.5157770509641133
10	0xbfe42c96f0b84978	-0.6304430676994306
11	0x3fd5b4aefa74e3a0	0.3391530462136476
12	0xc00954844fe45679	-3.1662679902609026
13	0xc0068703b9b3c7fe	-2.815925074385631
14	0xbfe423ee9c915a10	-0.6293862398113692
15	0x3fa0ea9afdc2e85c	0.033039897419670367
16	0xbfb9dea8e7bebaae	-0.10105376870954316
17	0xbfe36f60e7881e30	-0.6073460123161052
18	0xc00f341e51fb8313	-3.9004484562759756
19	0x3fc8e45a4400014e	0.19446876831353638
20	0xbff2f2cdbb6114c6	-1.1842782325268657
21	0x3fdeca45748f5f56	0.48109566099946244
22	0xbfdab1f1ea45bfd3	-0.41711089971704246
23	0xbfe87d648a507d69	-0.7653067304089919
24	0xc007859ea12ce70d	-2.9402439681842965
25	0xbfdecc48166206e3	-0.48121835885841174
26	0xbf83f838a1727983	-0.009750788142181893
27	0xbfb1297a4362350b	-0.06703914780719715
28	0x3fa1499ea8c38989	0.03376479921441262
29	0x3fd7bdef4b71a0b3	0.37096769683422365
30	0xc006047fb13b76be	-2.7521966787597583
31	0xbfd6c426fa254d52	-0.3557221834973535
32	0x3fc51b79131a12a2	0.16490090782840122
33	0xc0059c1fd0e967b2	-2.7012325593213626
34	0xbffb721fd68091ad	-1.7153623942368583
35	0x3fcf64ec8165a8d4	0.24526745146005757
36	0xbfeb176800c316c9	-0.8466072096714125
37	0xc003ec30948eb26f	-2.490327034573333
38	0xbff4a2d2fc80e664	-1.2897519935053419
39	0xbfe9649cc1b3d67a	-0.7935317786456857
40	0xbfedf887e4a16512	-0.9365882363737532
41	0xbfec2b93188a7881	-0.8803191642107465
42	0xbfee4b59df4b4554	-0.9466981278621156
43	0xbfe9d4b9f0bab979	-0.807217569517703
44	0xbff61712f08769cb	-1.3806332965528891
45	0x3fcd84e7490213fc	0.23061839165544018
46	0x3fe13a2d442eb656	0.5383516627968656
47	0xbfd021007cbcbb15	-0.25201427632684786

linear3.weight f8 [24, 48]
0	0xbfe0494cb38445d9	-0.5089477068124167
1	0xbfd1b9b83190ab1b	-0.27696041908591135
2	0xbfd901f3ce1c7c84	-0.39074416282705493
3	0x3feb233f942dbec0	0.8480527776827884
4	0xbfd5d29f5842e9bd	-0.34098037356639194
5	0x3fe8b84422ae283d	0.7724934270238532
6	0xbfe6791c1fce2243	-0.7022839184947504
7	0x3fdedbb689a7de72	0.4821602196020428
8	0xbfece388c81bceaf	-0.9027751835223706
9	0xbfe0426637c10b80	-0.5081053818652066
10	0x3fa5ee5ea99af742	0.04283424206140164
11	0xbfe4f331f934f38f	-0.6546869151421663
12	0x3fe9eb92d204e194	0.8100065328535941
13	0x3fd8eb3f68e9ed23	0.38935837979780014
14	0x3f43b54570d4dcba	0.0006014432016518058
15	0xbfae2cae3fcfee9a	-0.05893463639219228
16	0xbfc95e240b7e122e	-0.19818544922976983
17	0x3f93e43c7ecaebcc	0.019425339926538318
18	0xbfc1a5dd1220882a	-0.13787425408469406
19	0xbfe887e291c4dc04	-0.7665875289011415
20	0x3fd1579cd7b52352	0.2709724527854195
21	0xbfd5f2774869d21d	-0.3429239470636121
22	0x3fead84149f027bd	0.8388983196357384
23	0xbfa1f1bcbab46c4a	-0.03504743365393688
24	0xbffb49ac6aac432e	-1.7054866949949417
25	0xbf82b2975d12dae7	-0.009129698303110568
26	0xbfd85ddbc0e48280	-0.38072866284532125
27	0x3faa391e15d8d52e	0.05121702210127875
28	0x3f9ffbbcde471f53	0.031233740870248394
29	0xbfd681db30b5cdb4	-0.3516757941899542
30	0x3ff5baa138ba8043	1.3580639091451452
31	0x3fdf4f314857e319	0.48920852722908276
32	0xbfe4e45841515c78	-0.6528741145838373
33	0xc00680a424c775b0	-2.8128130792017245
34	0x3f8d37df093718b7	0.014266722172476027
35	0xbfd54d1f953b5d69	-0.33283223699023395
36	0x3f620979e81b55df	0.0022017842282859713
37	0x3fea394228949a45	0.8194895546519737
38	0x3f790be2f93a3886	0.006114851584824282
39	0x3ff2f8cef33466df	1.1857442379172694
40	0x3fe27c6bdad2c652	0.577688147916158
41	0xbfc044c32b2fa970	-0.12709846123409418
42	0x3fcb65b7e495d94c	0.2140416971339597
43	0x3fceda16915b1a9b	0.24103052232222386
44	0xbfc9c1e74510692e	-0.20122996208449123
45	0xbfebba237432a679	-0.8664719838609037
46	0xbfe1307a2427f03a	-0.5371676164791162
47	0xbfca86e1469b478a	-0.2072412104376407
48	0x3ff22c0703eff5ce	1.1357488778879659
49	0xbfc3fcee9a094a4b	-0.15615637322715012
50	0x3ff266f5de7d83fa	1.1501368227984572
51	0xc011576bf69e7bcd	-4.335372785018035
52	0x3fe793f3b2807370	0.7368105398523834
53	0xbfc4a5ece73e5090	-0.16131364146406613
54	0xbfdfb36e2cd3df9b	-0.4953265607614356
55	0x3ffa04a4136551e1	1.626133037342804
56	0x3ff1a17aa424da3d	1.1019236003754849
57	0xbffc99412162fe60	-1.7874156288306935
58	0xbff04070ad390dcb	-1.0157324568289023
59	0x3ff492c9a9091072	1.2858368494935601
60	0x3ff0fb95b64c8ea5	1.0614220734650328
61	0xbfdef4761e267746	-0.4836707395969494
62	0xc0075644e8b1be2f	-2.917123620914729
63	0xbf911cde0edf4407	-0.016711682946894537
64	0x3ffd49ba1929e7cd	1.830499742789914
65	0x3fdbecf1599fa432	0.4363368392210446
66	0xc00733766fcd5bde	-2.9001282438798475
67	0xbff2da8ae3f37863	-1.1783551124895204
68	0x3fd0acf63ecdc753	0.26055675633607683
69	0xbfd537ecd8f2af32	-0.33153840242697463
70	0x3fc670e101ffaae9	0.1753197917708669
71	0xbfe91aa0eb2338cb	-0.7845005600481952
72	0x401351df1c3ef8ba	4.829952660888177
73	0xbfe076bfdb3728dc	-0.5144957810928434
74	0x3ffb4b2ada68c981	1.7058514148344275
75	0xbfe0287794640e6e	-0.5049398325213141
76	0xbfe76ff74b3e0442	-0.7324177236151928
77	0xc014ae276199d346	-5.170072102559805
78	0xc00c14743175a95c	-3.5099872459442576
79	0x3fd79a38a2004c7a	0.3687879163782736
80	0x3ff15e2998e6c99d	1.085488888999499
81	0x400d9b053b082b43	3.700693570315168
82	0x40034ad82b87b9e2	2.4115451241298027
83	0xbff99b403a06f370	-1.6004030481992366
84	0xbff33d78feb72de1	-1.202507967932313
85	0x3ff7d483f18685bd	1.48938364358797
86	0x3ff7b65ba58f7d7f	1.4820209948737497
87	0xbfd6c15ced6b2ba6	-0.35555194077886154
88	0x3fe8bfb9562b1a0d	0.773403805062857
89	0x3fec4c95be2dc07f	0.8843487467220398
90	0xc010c576f4d09d15	-4.192836594803585
91	0x400085f5a1863790	2.065409910114745
92	0x3fda217bad4605e4	0.40829364701502713
93	0x3ffa92205d6cdd95	1.660675396864325
94	0xc0200903c5839051	-8.017606899557139
95	0xc015e01cef6f4789	-5.468860379378278
96	0xbfd3be2ca00a0ce3	-0.3084823191531553
97	0x3fd8b6ec7027bb85	0.3861647696748423
98	0x3fb6d5f9d2532851	0.08920251259692803
99	0xbfd3946f4436e96e	-0.30593473111698344
100	0xbff743a9d1cf14e7	-1.4540193744335796
101	0x3fb4139a915f537d	0.07842412995462485
102	0xbf8610d5489b6a72	-0.010774294164936669
103	0xbff4d6bc84d1ae04	-1.3024258793110457
104	0x3fd2b87dfcebf3b2	0.29251050662406464
105	0x3fe46babdfdd767e	0.6381434795727754
106	0x3fbd24af51946ad0	0.11384101621335252
107	0xbfedbe1660cfaf04	-0.9294540301175123
108	0xbff03ba7fcf69556	-1.014564502847255
109	0xbfd50fb1b3567260	-0.3290828944534834
110	0xbfdf69886cdc4483	-0.4908162177171748
111	0xc0080c683d452df1	-3.006058195756616
112	0x3f656b0081e87f30	0.002614499083634224
113	0xbfc9650b0f0f5081	-0.19839609370558622
114	0xbfda6ae951ece524	-0.4127753543903785
115	0xbfde88ca42bb43f2	-0.47709900395153604
116	0x40008ccf7c468b88	2.068755122092117
117	0xbfd1ba4bc2af42c8	-0.2769956017701074
118	0x3fd17bf8174deb90	0.2731914737302583
119	0x3fc31cc92260c3b8	0.14931596926319712
120	0xbff577c22095e487	-1.341737868582898
121	0x3fdc8791928b9b63	0.44577445326870285
122	0x3f83b32abf490bfb	0.009619077646794585
123	0xbfe08d3085a3e55d	-0.5172350511703986
124	0xbfd6426ed38d97ae	-0.3478047433803749
125	0xbfb65895a675cd33	-0.08728919328659827
126	0x4002b445473f75af	2.338022762893807
127	0x3ff1db93978188fe	1.116107551403331
128	0xbfdb98fea376c26e	-0.43121305430671597
129	0xbfd02fefd5747349	-0.2529258331795075
130	0x3ff3ec87370930b1	1.2452461385574163
131	0xbfcd96c617e683d5	-0.23116375128759495
132	0x3fdca756051ff7b7	0.4477133798644632
133	0xbfeaec36c55f140e	-0.8413347105894233
134	0x3fd5890b092a483d	0.33648944754634497
135	0xbfec9ce73b11cf0a	-0.8941532281591844
136	0x3ff8f3e5b91decb1	1.5595452529076221
137	0x3febce7361a2d8f0	0.8689515025096437
138	0xbfd9db6e5a2f514b	-0.40401800925362313
139	0xbfaee68ccad493c0	-0.06035270667988568
140	0xbfc1d57c5ac05cf3	-0.13932756835195156
141	0xbfe4e7ef2281c5b0	-0.6533122705424628
142	0xbfe1b325631dc868	-0.553118413530922
143	0xbfd15df2adae5e2f	-0.27135912858054473
144	0xbfd831487a4fbb6c	-0.37800800270536317
145	0xbff64f7f7891fca2	-1.3944086751724076
146	0x3fd9dea4cfac0c05	0.40421409874414876
147	0xbffd42caf8d5fec4	-1.8288068504479478
148	0x3fded841245c7dee	0.4819491248217379
149	0x3feee286b3c4ee41	0.9651521216505402
150	0xbfe945ea8b3096a3	-0.7897846907187226
151	0x3ff3ac3a350eb5a1	1.2295476982647886
152	0x3fc64c42fba3c17d	0.17420232092946356
153	0xbfe061d43c521355	-0.511942022145926
154	0xbfe546849d05a8cc	-0.6648581568563485
155	0xbfaaa4de0885d901	-0.05203908781088452
156	0xbff76e0a54208c97	-1.464365318891202
157	0xbfd0538f899c38c0	-0.2551001399850854
158	0xbfd616697192fa8e	-0.3451179131624621
159	0x3ff1212042a0daec	1.0705874064130354
160	0x3fb3de5e9b12fd98	0.0776118401145055
161	0xbff2a8900e3153a5	-1.1661530069734252
162	0xbfe1a5a01a78004f	-0.5514679448097101
163	0xbfe4c4b76daa4fb9	-0.6490132467174511
164	0xbfdd2c1ab9fe8ee8	-0.4558169189788104
165	0x3fe16153f4136a83	0.5431308524233177
166	0xbfe68b9c4dbcda2c	-0.704542304831937
167	0x3fa14dbe1aefacde	0.03379625395594997
168	0x3fe723bf2b4c1324	0.723113617481975
169	0x3fdf24d6e197291d	0.4866234972984261
170	0xbfc5ce30f519cb27	-0.17035495727358205
171	0xbfa328fd227245f8	-0.037422094778900516
172	0x3fd5ba1f9ebda056	0.33948507787727544
173	0xbfc47d9d9ad2de09	-0.16008348521948815
174	0x3ff5ca751c2835fd	1.3619280910382934
175	0xbf9824fef4d076e1	-0.02357862824657431
176	0xbff3e996605ec13a	-1.2445281757791933
177	0x3ff54c07519f8fbd	1.3310616672906541
178	0x3fec3369b433787e	0.8812759894897366
179	0xbfe811dd7a0dc1b1	-0.7521808036672636
180	0x3fd29fbc750b464b	0.290999521542379
181	0x3ff3ad872441a2cb	1.2298652092232938
182	0x3fe0989d6f4d1131	0.5186297582481868
183	0xbfe02b0ddb4cc002	-0.5052556307982743
184	0xbfd8bf80461312d9	-0.38668829768384466
185	0xbfd087f0ddd78f0f	-0.2582971731592218
186	0xbfe119392c83b92d	-0.5343290204453176
187	0x3fd848db81d2595b	0.37944686582468073
188	0x3fd7d443390f7537	0.37233048031142196
189	0xbfeb86cf9e5979fa	-0.8602064221157086
190	0xbfd75b0514ccde12	-0.3649304106834005
191	0xbff2d355f6cbbcff	-1.17659565357809
192	0xbfd28efe1ba84245	-0.2899775762644235
193	0xbfb11905b4bf3abd	-0.0667880598332244
194	0x3fbb5a81ca0c4de1	0.10684977705778166
195	0x3fdb3ce5991904cb	0.42559184981298576
196	0xbfc4ed0a6cb1c545	-0.16348390872330235
197	0xbf88622be73209cb	-0.011905997269654819
198	0xbfc1bd7d7a634e97	-0.13859528041813426
199	0xbfdabd70c693c1de	-0.41781253235151705
200	0xbfc40ac3ea669fa6	-0.15657853074412492
201	0xbf82139335610e63	-0.008826398912908212
202	0x3fe5cb00e03951b4	0.6810306910870652
203	0x3fc59e839a344c66	0.1688999655676497
204	0x3fcf86427a478cc3	0.24628478022268582
205	0x3fd8dd10f35a9e5c	0.38849281086956977
206	0x3fe16b1e7d7105ca	0.5443260622052375
207	0x3fd2b030cdbaa1dd	0.29200382319188894
208	0xbfa238c2fb6be7b7	-0.035589307013608566
209	0xbfd02269263d65f7	-0.2521002648769292
210	0xbfc4b6a043c93f13	-0.16182330427044941
211	0xbfb0ee9744f1af55	-0.06614060815053098
212	0x3feda69c36ca5142	0.9265881605265707
213	0x3fbe1897e4b59c40	0.11756276448942149
214	0x3fb203edabd5cee9	0.0703724426764968
215	0x3fa01e9e20e16976	0.031483594430670545
216	0x3fb3fca6b2a5506e	0.07807390080898965
217	0x3fd0cdd0b3283abf	0.26256196494879797
218	0xbfd61d2462609ec2	-0.345528694221212
219	0xbfc6b5a6f81da13f	-0.1774185859205861
220	0xbfdb252dc203d77f	-0.42414421030786537
221	0xbfeb500bc9f2f34a	-0.8535212463681117
222	0xbff275af31989b0f	-1.153731530890301
223	0xbfc733bf6afd692e	-0.18126671527972732
224	0x3fbb80dd8cb16b9f	0.10743508038414838
225	0xbfb3466056117c6c	-0.07529260731961224
226	0x3fb88a7b6b27f4a0	0.09586306921115062
227	0xbfcd6620d34aa34c	-0.22967920605631276
228	0x3fe481b9aa3fd288	0.6408356023008119
229	0xbfe84b3c47e8ffd6	-0.7591840176100912
230	0x3fbe660938a2815f	0.11874444611249178
231	0xbfd02f0157267bdf	-0.2528689719273966
232	0xbfc21a1b72aa008c	-0.1414217290766867
233	0xbfd4450457dc9dc5	-0.3167124612832278
234	0x3fca338c144e5619	0.2046980952406308
235	0xbfd43e5637822534	-0.31630473538151027
236	0xbf9f815b4099bb12	-0.030766893213178888
237	0xbfdca63830ae7c12	-0.4476452327161847
238	0x3f91a0c59bbb6e6b	0.017214858656059578
239	0x3fbe41a9ad258220	0.1181894347878445
240	0xbfb7ee265a04a486	-0.09347762773235688
241	0xbfe3992f00e8f6cf	-0.6124491708539724
242	0xbf85355ca6b53f0b	-0.01035568603279515
243	0xbfd48bcd3911643c	-0.32103281567612263
244	0xbfe0f0e7c2604a63	-0.52940738643731
245	0xbfd423be6b3a81d9	-0.3146816298631428
246	0xbfd9b0611c128788	-0.4013903402466146
247	0x3ff2041721ca9521	1.125998622891821
248	0xbf90fb70a4a26743	-0.016584167526708226
249	0xbff8ddd17d84afaa	-1.5541548636492544
250	0xbff214201aa213e5	-1.129913429294214
251	0x3ff32e668ca1b765	1.1988282674241983
252	0x3fe846ab1b1577bc	0.7586265114766699
253	0x3fd444e00abbbc46	0.31670380638292206
254	0xbfeb61c8d0df7f26	-0.855686576800484
255	0xbff20b93f54be710	-1.1278266508001629

linear3.bias f8 [24]
0	0xc004eea0402b7bd9	-2.6165165913839528
1	0xbfec71ad0f8cce1c	-0.8888764671050384
2	0xbfe1104a7eaecc8e	-0.5332386469148263
3	0xc0050d489ebdc71e	-2.6314861680665578
4	0xbfec78a7bcef22fe	-0.8897284212226564
5	0xbffa86a2c3c5023d	-1.6578700682877205
6	0xbfeeec3e5ff4a014	-0.9663383363849811
7	0xbfd1fc97bf8bc631	-0.2810420389715516
8	0xbfe09508e5f6cd46	-0.5181927196012246
9	0x3faec00a2e4a6523	0.06005889716215964
10	0x3fe9b0f0c8f19e9e	0.8028491902050126
11	0xbfdd567ab0022c22	-0.45840327442482665
12	0xbff70ee2d8d09cb4	-1.4411343068439182
13	0xbff7fb55071b6b8b	-1.4988603856679414
14	0x3fd0fe2541ee17b3	0.26551181257706985
15	0xbff73a080bab4e46	-1.4516678291155514
16	0x3fbc5d4a585eac7c	0.11079849870172781
17	0xbffdc771caa18a88	-1.8611925044321271
18	0xbfb5184bb8321766	-0.08240197417225445
19	0xc006aa1f96305221	-2.8330680593010276
20	0x3fcfd8aa9a1eab38	0.24879963422184814
21	0x3fd29c237a40badf	0.2907799428821089
22	0xbff944779e5840cf	-1.579215639623772
23	0xbff6050bbf5fc229	-1.3762319064663961

linear4.weight f8 [12, 24]
0	0x3ff3fd96f0335c34	1.2494115240895214
1	0xbf904c2c5c8bd11b	-0.015915578030175497
2	0x3fd2fc57a15b6e95	0.2966517520669439
3	0xbfdb50ebf47bdeb1	-0.4268140685594331
4	0x3fa419c27900b9b8	0.03925903060040831
5	0x3fae8af0507274c4	0.05965376836795991
6	0x3fcfa9f432e169a1	0.2473740814628629
7	0xbfc1c26eefdcb67f	-0.13874613487262263
8	0xbf77c20d02c45a3d	-0.00580029566142187
9	0x3f5cd2ff92ceca3e	0.0017592902979514237
10	0xbfd9498c9aa41b6e	-0.39511408902801903
11	0xbfedcf98b0d03dea	-0.931591363276252
12	0xbfec59abcdef77e1	-0.8859461805511694
13	0xbfc61843dccecdcd	-0.17261551171905723
14	0xbfd1a1e9b86447a7	-0.2755073834133505
15	0x3ff0df58134deb69	1.0545273546292384
16	0x3fc4fbb7787a9ce8	0.16393178351174886
17	0x3fbae27e2698c752	0.10501850549988248
18	0xbfdfa14deff12514	-0.49422024185021596
19	0xbffd313eb1eba41f	-1.8245226812380293
20	0x3fc2d45e7cb03e05	0.1471059902983002
21	0xbfa725b36c0831d0	-0.04520950978994487
22	0x3fa46bceb1c9edac	0.039885005190593986
23	0x3f7417c48661adfa	0.004905479121684925
24	0xbff26d3322c9191a	-1.1516600951013687
25	0x3fecff63d8300449	0.9061755392468821
26	0x3fa5bdb4a38cd395	0.04246296402417397
27	0x3ff8e7c6a3ed89fe	1.556585922568615
28	0xbfea406088d4c3cd	-0.8203585312349958
29	0x40262cf7acc2014b	11.08782710903383
30	0x3f90cdaa3514328b	0.016409549226454472
31	0x3fd0b402d853943b	0.26098700643189304
32	0xbfb05f1eb1168526	-0.06395141433178661
33	0xbff6dba3ec7b5000	-1.4286231267515177
34	0xbfd24605a02f8056	-0.2855238022148162
35	0x3fba68b5783d13d0	0.10316023049843115
36	0xbfd7afe049b19d84	-0.3701096267381774
37	0x3fdda9ec8efa9746	0.463496341350368
38	0xbf920c0ed59a5af6	-0.017624122416772324
39	0xbfe4cc2008801b98	-0.6499176183723305
40	0xbfc11f8b729ad8a3	-0.13377516838017298
41	0xbfffdc868861b7bd	-1.9913392379198591
42	0xbfd406cd4f308b9c	-0.31291516049730617
43	0xbfe5d75fddc42295	-0.6825408297891778
44	0xbfcb7e86346fdc2b	-0.21479871330640896
45	0x3ff3dabefabc87e8	1.2409047884361772
46	0xbfb00839794c385d	-0.06262549601908192
47	0xc0013808c19caa7f	-2.1523604513106984
48	0xbfe666a0485663a2	-0.7000276005593273
49	0x3fd53a57f7c84e21	0.3316860122442638
50	0x3fd3027b895a78ce	0.29702652371805705
51	0x3fccfa4521dbad31	0.22638763573864076
52	0xbfdd37a3103fe52e	-0.45652081095575425
53	0x3fd59140b7a2438f	0.3369905274676563
54	0x3fda08448efbe96f	0.4067546268776345
55	0x3fe004964dc824af	0.5005599517036411
56	0x3fd203dcaf09a520	0.2814857205726913
57	0x3f6abcdcb8f3bb31	0.003263884638378477
58	0xbfd13cb08455b4db	-0.26932919429130003
59	0xbffb7a8ed96538a0	-1.7174213878638867
60	0x3fd8d7cb51e3e683	0.3881710338315331
61	0xbfdf9eaddd1bc34e	-0.49406000702497443
62	0xbfdb60a42b2fecc8	-0.42777351586819323
63	0x4000f97ecc5b15a4	2.121823879747085
64	0xbfc612de54034c4d	-0.17245081999007753
65	0xbfd302e7dfddfcc7	-0.2970523534967921
66	0xbfe3f1510300edf8	-0.6232075747170134
67	0xbff6cfbda33e3941	-1.4257179619485927
68	0x3fc1172cbfe07089	0.13351973885517435
69	0xbfb6ee9d62d96b1c	-0.0895784727412487
70	0xbfd328ca95ff58d6	-0.29936470649898916
71	0xbfdae4370c499b85	-0.420179140090504
72	0xc003548ee6aea2b1	-2.416288187221959
73	0x3fd5f2d1df949b0c	0.3429455455210906
74	0x3fb8f143c6968a2a	0.09743140791264496
75	0xbfde3d0a5373b0b9	-0.47247560643769365
76	0xbfd0f195c0bb863d	-0.26474517652068014
77	0x3ff6cb419cc8b6d8	1.4246231197716295
78	0x3fd78fbb436cae27	0.36814767441203106
79	0x3fdd3d445815b6aa	0.45686443903000884
80	0xbfce6f71f5669227	-0.23777603609518502
81	0x3f787929e5a47646	0.005974925670924563
82	0xbfc0b3c28af2b388	-0.13048583778927658
83	0x3ff2dbdd03ff6128	1.1786775737910578
84	0x3fe6bdceb6db5d51	0.7106698581145939
85	0xbff161464af08f0d	-1.0862486769992217
86	0xbfa832049c45c2e7	-0.04725660712836604
87	0x3f8af7c339401c44	0.013167882141727934
88	0x3fc965460d12c286	0.19840312612861427
89	0x3fdbc3c18fe2a675	0.4338230042581935
90	0xbf93cc2491a7c253	-0.01933343066224531
91	0x3fff294fb5777d61	1.947585781912345
92	0xbfc6c123712894f1	-0.1777691175968026
93	0x3fb9815d284e61ef	0.09963018640554087
94	0x3fe83c8aa559c9d8	0.7573903302675786
95	0x3fd2c83a2e38a772	0.2934709025745327
96	0xbff899cc4506aedc	-1.5375483223278286
97	0x3fb9616229c65763	0.09914220352069729
98	0x3fb477141eaedaf9	0.07994199513528234
99	0xbff2f22363879320	-1.1841157806276854
100	0x3fc1483364b0d80d	0.1350158921865731
101	0x3fe1a54a565da6cd	0.5514270483810947
102	0xbfb72a9ae74e9f2d	-0.09049385211130519
103	0xbfc8d4575dad27fc	-0.1939801413921599
104	0x3fb0047554032646	0.06256802846032725
105	0xbf5ab1b393249a6e	-0.0016292813930448807
106	0x3fb04bb69ecad68e	0.0636552941967585
107	0x3fc7a60428aaacb6	0.18475391374281508
108	0x3fb769f1431624f2	0.09146030319074663
109	0x3fde109377c9bef6	0.46976172159246177
110	0x3fc6327f50dfc8e9	0.17341605614598812
111	0x3fe1f55076ae0db3	0.5611955945936898
112	0xbfc5c4e2b37dc7fa	-0.1700709701941035
113	0x3fd09c299d0365f8	0.2595314057667504
114	0xbf4e8cbf93eac6a3	-0.0009323058546526108
115	0xbff43d02f546be18	-1.2648953991991956
116	0x3fbb45b5a012b8dc	0.10653243215594749
117	0xbfb6aacf35bb4f6f	-0.08854384481247533
118	0x3fd53fcec2b4be96	0.33201951040516897
119	0x3fbbef860b3d594c	0.1091235902252709
120	0xc01044d58b320fe4	-4.06722085469298
121	0xbfe9c6a188896221	-0.8054969469768062
122	0x3fca09052a6b2507	0.20340027400224178
123	0xbfd5c64da0564787	-0.3402284684935854
124	0x3fe330098e50ae52	0.5996139316170661
125	0x3fde68ba7860ce0b	0.47514211421659586
126	0x3fec2e85b5da1a57	0.8806789924427204
127	0xbfde293c0e29ebed	-0.471266759712022
128	0x3fe1856bf462ead2	0.547536828343562
129	0x3f8133ebfa39315d	0.0083998141991734
130	0xbf51eb9b56f6b4af	-0.0010937706937100102
131	0x3fc6384877d6c718	0.17359262324821922
132	0xbff88ff807caed7e	-1.5351486496354876
133	0xbfefd03a8bb5d21e	-0.9941685417857717
134	0xbfcae884a4b99e6e	-0.21022089045731057
135	0x3febf2b9a13016db	0.8733795307350322
136	0x3fe132731cc578f5	0.537408405489059
137	0x3f96a3eea749d47b	0.022109726868127382
138	0xbfe0d4a72d6bfce4	-0.5259586226601667
139	0x3fc5ccde92c1fe31	0.1703146187391993
140	0xbfc3285e88151e0b	-0.1496694721665651
141	0xbfb0a1dcad30a42c	-0.06496981838485344
142	0x3ff70a3da424a4b9	1.440000191864142
143	0x3fd654eaf6913f7c	0.3489329727062722
144	0xbff7622c33ef29d0	-1.4614679363900116
145	0xbff92bcf6170d251	-1.5731958204534247
146	0xbfb032ed686cc05b	-0.06327709006723252
147	0xbfef881c482283ec	-0.9853650483020124
148	0xbfec95e23d34cd81	-0.8932963557657986
149	0xc002b4e8156f336b	-2.3383332895813758
150	0x3fc3b47f3c270ed9	0.15394583165299627
151	0x3f9aa39df873f1f6	0.026014774598467093
152	0xbfc08d00598ed24a	-0.12930302021927026
153	0xbf81b249fd7a028c	-0.008640840576164231
154	0xbfcf42b38ad309af	-0.2442230632642128
155	0x3fd87c258a85622b	0.3825773098701883
156	0x3fd1580bb70eff79	0.27099888684096346
157	0x3fc2e215abc7b83e	0.1475245560426987
158	0xbfba0688bdffe80d	-0.10166220320380166
159	0xbfcc78e9ec6a0b5e	-0.22243999522842278
160	0x3f97fecef6821fa9	0.023432954593345965
161	0xbfac5b46c9171d77	-0.055383884474902105
162	0xbfc7af624e7009f8	-0.18503979520762903
163	0x3fddf521750585e6	0.4680865900791943
164	0x3fb8653aafed26df	0.09529463572576045
165	0xbfd060b758525c9a	-0.25590308785599236
166	0x3fd179001ae3a784	0.27301027894883867
167	0xbfd2ffa56e9213ed	-0.29685340688621303
168	0xbfecec4fff74fede	-0.903846739711266
169	0x3fd7ef97bcd8662c	0.37399857942509374
170	0x3fc47feea9e4c033	0.16015418334564088
171	0x3feba71b283fa24e	0.8641486917595758
172	0xbfc4a596fb5fd05b	-0.16130339883932518
173	0x3fbd0a50259ae128	0.11343861501780295
174	0xbfa31addecada3eb	-0.0373143531240386
175	0x3fdf37da93f58082	0.4877840466415436
176	0xbfbdcbe8584da580	-0.1163926330169911
177	0xbf7ddb2b6430a37b	-0.0072890944457321095
178	0xbfdc84a25966d905	-0.44559534769668147
179	0xbfcfdb560aa7e07a	-0.24888110657025547
180	0x3fd9aa213e2da52a	0.40100890228366615
181	0x3ff4563fc75905fa	1.2710569178601632
182	0xbfdda438f2c37964	-0.4631483431566237
183	0x3fd012d301d1e1f4	0.25114894082756156
184	0x3f9b3f8d890c8418	0.02660962246875806
185	0xbfb0b0aa484e6a0d	-0.06519569649973551
186	0x3f9fa6830ffe993c	0.03090863022921407
187	0xbff852629de86f33	-1.52011357958595
188	0xbfcd7518329c4609	-0.23013594123089856
189	0x3fb66a1231e592cd	0.08755601614172832
190	0xbfd13f0b846440cd	-0.2694729607474187
191	0xbfa89cedff8e0419	-0.04807227844776935
192	0x3fc2ed3d7fac1fa7	0.14786499723436217
193	0xc0149b29ded0271d	-5.1515269102617625
194	0x3fb7413c8a8851fa	0.09083917982236037
195	0xbfeec742e563e274	-0.9618238907124366
196	0xbff75bccc2ee6a46	-1.4599120726112615
197	0xbffe6b0867bca9eb	-1.9011310627198508
198	0x3fb18f97f154cbb7	0.068597313326605
199	0x3fd1bf07ec4630a6	0.2772846038212812
200	0xbfde5ad802a6086f	-0.4742946649422554
201	0xbf925ee956f0e521	-0.017940183574158945
202	0xbfd6773f556aa59e	-0.35102828351463156
203	0x3fca2d54e4af8723	0.20450841108600412
204	0x3fc06f9c9b416279	0.12840612011747846
205	0xbfcbeaa46bc1841a	-0.21809821378249766
206	0x3fbddf43ab070689	0.1166879932925672
207	0xbfe1a7715d9cd773	-0.5516897991535487
208	0xbfbc85139b531162	-0.11140558759786282
209	0xbfebc97831f83570	-0.868343446347053
210	0xbfbf8d5faa691ed5	-0.12325094137588206
211	0x3fc7c4d7e4b5b161	0.18569468181102436
212	0xbfd622131fc3c0fe	-0.3458297548486512
213	0xbfd57dbd9661deb1	-0.33579959569713497
214	0xbf86168fd10da08a	-0.010785220687197023
215	0x3fbbcece777b1c80	0.10862436692251443
216	0xbfedddc5d8ea9f24	-0.9333218800211154
217	0xbff7b509fa66e440	-1.4816989690136921
218	0x3fa8a923dcb4b4f9	0.048165436450611616
219	0xbfd1fa30d5879354	-0.28089543201922607
220	0xbfeebfcd61b3355e	-0.9609133632854243
221	0xc011f36cd866c59a	-4.487719899437616
222	0x3fb843beeda763fa	0.09478371908279817
223	0x3fca3897417a568b	0.20485201546823747
224	0xbfd090eb77e3236f	-0.2588452025198
225	0xbff78034ea1b013c	-1.4688004631753548
226	0xbfd6108e9ed9c12d	-0.3447605658793858
227	0x3f9383ec75c1e313	0.01905793637021975
228	0xbfcd0a23cfd76025	-0.22687194489003662
229	0xbfa9dc327387f262	-0.050508095362577846
230	0x3fa50ad27439d639	0.04109819096349238
231	0xbfe20de0c414a93d	-0.5641940908147159
232	0xbf9f86aed016810b	-0.030787211847951784
233	0xc001fb8136c3d7fd	-2.247805049754787
234	0xbfd182ae409b6ed9	-0.2736011153153704
235	0xbfc47dcb9a7a1751	-0.16008896868532443
236	0xbfcea4751b60e28c	-0.2393938430484649
237	0x3ff65ef0d5f8329c	1.3981788976845229
238	0x3fa13c4f01705647	0.03366324322284391
239	0xbfffcab3dae9e2c3	-1.986987929469408
240	0xbfd311384aeb2e53	-0.29792601887013354
241	0x3fd255da2fadbafb	0.28649000793568263
242	0x3fcd8a9f2dcb3502	0.230792901382678
243	0xbfe094ceda3c6582	-0.5181650412006749
244	0x3fbb1843a17cdb89	0.10583899204799087
245	0x3fbc794036bd44da	0.11122514091882199
246	0x3fd0679eb2644d5d	0.2563244573695636
247	0xbfb75ca6265d7ac2	-0.0912574618973663
248	0xbfce94f529f1f3ec	-0.23892082737066234
249	0xbf772f09bab68cc8	-0.005660093312516774
250	0xbfde67d3effe5a6b	-0.4750871509253673
251	0xbfb0236fd5655945	-0.06304072341786078
252	0xbfd6998337cdf681	-0.3531196637121426
253	0xbfc9ace9d0cc2dbd	-0.20058939643091192
254	0xbfc6462996e95be2	-0.17401618832329208
255	0x3fd042dfb820d51d	0.2540816591384372

linear4.bias f8 [12]
0	0xbfcb6a0fa3e16c15	-0.21417422773342368
1	0xbff0df5eba980e0e	-1.0545336998774277
2	0xbfe331c04292fa29	-0.5998231220508546
3	0xbfd976e85a74c2d4	-0.3978825457916575
4	0xbff5e3820ca8a0a7	-1.3680439466934702
5	0xbff59dd23bc8ac0a	-1.3510305724437353
6	0xbfd4ac9809a33f0c	-0.3230342954748131
7	0x3fb5445b1f113f16	0.08307427891236005
8	0xbfec9e5c93877d78	-0.8943312531882119
9	0xbfedf5e73dcef4c5	-0.9362674910732031
10	0x3fc23290061e05e7	0.14216804789252466
11	0xbff21b1166d5e185	-1.1316083924303666

linear5.weight f8 [6, 12]
0	0x3fb416a65d0ee072	0.07847060939718789
1	0xbfbe2176a2773a38	-0.11769811121414697
2	0xbfd0bfaa4f16cce9	-0.26169831965962814
3	0x3fbc76d7de20a2a8	0.1111884038260863
4	0xbfdf08f3a524940f	-0.48492137076601777
5	0x3fddea59a8e92264	0.46742860312637036
6	0xbf8e62ac94b16a39	-0.014836643493414946
7	0xbfdd1867c4f0d85f	-0.4546145842790618
8	0x3f847e2e8f55cf1d	0.010006297826044947
9	0x3fbe270605ea24d6	0.117782951778412
10	0x3fe7877ca6f070bd	0.735288930943646
11	0xbfd6add48e228857	-0.3543597591434539
12	0x3fe64ccbdf205d72	0.69687455729847
13	0xbfc81feb24bec3f6	-0.18847407621572615
14	0x3fd63453550b9e41	0.34694369607175096
15	0xbfca3c7b73c09da5	-0.20497077133152888
16	0x3fe1b86807a1c703	0.5537605427800546
17	0x3fc41ccad50ea2a3	0.1571286716764649
18	0xbfb2ae74f52aef40	-0.0729745005182254
19	0x3fce822a5ca0e708	0.23834733507992945
20	0xbf9a10e27d425d0f	-0.02545503510972674
21	0x3fcac3952fac4a4b	0.20909371211799263
22	0xbf927fc3d0d55176	-0.01806550943486359
23	0x3fd66d3a79906311	0.3504167735241462
24	0xbfce467215c20fe9	-0.23652483045964282
25	0x3ff48fa62aa468ed	1.2850705781661944
26	0xbfd1818c93d4b623	-0.2735320514355825
27	0x3f981c344cecd634	0.023545090861452247
28	0xbfd55174f01d4359	-0.33309672783530214
29	0xbf9fcd98e3ebc3dd	-0.031057728682700392
30	0x3fd6a6da60fc7c11	0.35393390151324505
31	0xbfd2ca666b24745e	-0.29360352004170476
32	0x3fe07960e8b62d71	0.5148167176388779
33	0xbff4685a9532e217	-1.2754770114971785
34	0x3fd96a540867dead	0.39711476155160136
35	0x3fcf450a96e767e8	0.24429447525363845
36	0x3ff2c903ad8037d4	1.1740757729889895
37	0x3ffaf505eef2340a	1.6848201116401946
38	0x3fe4270159e67bb9	0.6297613864770631
39	0xbfe38219dc2c2a52	-0.6096314716572329
40	0x3ff97bdd34d3a491	1.59274025569383
41	0x3fe8fea4c8d126b2	0.7810844347197501
42	0x3fdfca91894ce44d	0.4967388001273932
43	0xbfd0c6a3844612cf	-0.2621239463553992
44	0x3fe645a20f8ffffd	0.6960001281695437
45	0xbffbadaf83b0cbe1	-1.7299037117161264
46	0x3fd07ab39983e2cf	0.25748910896031146
47	0x4001918293d5a218	2.196049838025157
48	0x3fd223e3bc7230de	0.2834405269902741
49	0xbfda748f20ef1c2a	-0.4133642026540111
50	0xbfd6ff8e9721ea70	-0.35934796103507605
51	0xbff2f61af9d5f5a5	-1.185084319993032
52	0x3fef01eab5973550	0.9689839884464764
53	0x3fcb36cf4947b87c	0.21261015966542007
54	0xbfa9bf3778f57721	-0.05028699256466341
55	0xbfe17e49cce2dfca	-0.5466660501178862
56	0xbfd25561cf49082e	-0.2864613079328845
57	0x3fdafd338ea763b0	0.4217041867355489
58	0xbf82353487a95f48	-0.008890543356002603
59	0x3ff58aa25482f941	1.3463462163195603
60	0x3fa48a4b2d536cc2	0.04011759689611828
61	0x3ff682a323e24e85	1.4068938638419308
62	0x3fb1b8f6f3f7051e	0.06922858673262453
63	0x3fdf06380d496de5	0.4847545747522573
64	0x3fe439e0898a977a	0.6320650755267103
65	0x3fc22668eb807743	0.14179717539894385
66	0xbff718cd8aed5aa1	-1.44355539577888
67	0x3fa4f780a2ec1e60	0.04095079411314084
68	0x3fdda004b41c7f68	0.4628917464160538
69	0xbff6b358f416d2f4	-1.41878600451781
70	0x3fbaecf5495d9536	0.10517819443847007
71	0x3feda64b942b6ea3	0.926549710649358

linear5.bias f8 [6]
0	0xbfb1c56957a98ab9	-0.06941851034347736
1	0xbfd68364905011f1	-0.35176958172840417
2	0xbfa70ea63986bccd	-0.045033640405898724
3	0xc00183315592c8f5	-2.189058941404364
4	0xbff5c68694e3813e	-1.360968190761994
5	0xbfed14c530863aa1	-0.9087854335537778

output.weight f8 [3, 6]
0	0x3fd1b1c625e8fda2	0.2764754648414628
1	0xbfb85ca86a4a127c	-0.09516384692148877
2	0x3f8b5da0c445ff15	0.01336217497805551
3	0xbfc9c8b32398ba44	-0.20143737066378453
4	0xbff12d0ec227f41d	-1.0735004028531485
5	0xbfb244d7252c0b2e	-0.07136292130966801
6	0x3fd01874c41641cc	0.25149268292537097
7	0xbfef41c53524e8c2	-0.9767786062214088
8	0x3fbe1071163bb2a6	0.11743838112642865
9	0x3fe84ac45eace404	0.7591268395545971
10	0xbfd055bc4bf0d99f	-0.2552328816995217
11	0x3f766411417bc9bb	0.005466525464486722
12	0xbfc08adf7f74dfb8	-0.1292380688043957
13	0xbfd96d38c3ca520c	-0.3972913658156194
14	0x3fdcc6fea4bd5953	0.4496456726823414
15	0xbff4d01e2d1a09a2	-1.300810028246453
16	0xbfbc03257cf7bc42	-0.10942301083535802
17	0xbff5f44af1717d89	-1.3721417838458783

output.bias f8 [3]
0	0x3fedbba297c0b037	0.9291546787185386
1	0x3ff03e576f4a9731	1.0152201030081864
2	0x3fe68331d6c85843	0.703514976022014
