magpylib/_src/fields/networks/weights.pt (torch, 27250 bytes, 12 tensors)

linear1.weight f8 [24, 6]
00000000: c9c9 0799 b07b e03f 60f1 00e9 9d68 b33f
00000010: e4c1 d7d2 5fd4 a93f 30db 356d 9069 f4bf
00000020: 5fca fceb 0e2f f6bf 269a 02e3 9d08 d5bf
00000030: e0fc 3d1c 2014 e2bf 0ee1 ff0a ea0d cb3f
00000040: 73b6 5ca2 8b3c b6bf 4c1a c461 d4ef e0bf
00000050: d7b1 8f6a 38c4 933f 183a 23ce 015f e43f
00000060: 7ec8 8305 14b4 dfbf 5ed8 9513 c520 e9bf
00000070: 40d9 9419 f33e afbf a78d b2be 9a4f fcbf
00000080: dd9a 2d75 8bc3 ffbf 51fb 88a6 7769 ed3f
00000090: 741a 9871 5151 d9bf 5666 58db 5e61 c73f
000000a0: d1c6 28a8 cb57 ae3f d2f1 f9ec 4ce2 ccbf
000000b0: 2dbd d301 894e 06c0 6c6d 3a65 24a4 ed3f
000000c0: b82d 460e 9a3e c73f 3261 3488 1804 6e3f
000000d0: 2b65 d6a3 964b cf3f cc56 2de6 eff3 06c0
000000e0: 0c2d 0240 4e3f 00c0 12bc 5c48 cda3 d6bf
000000f0: 538f b4d4 c5c7 0fc0 0a6a e0d2 d8d1 d03f
00000100: 0883 6513 c38d 9ebf 08f0 39af 60ea f2bf
00000110: fd0f 349a 4f33 01c0 a058 e0d0 836c 00c0
00000120: 7f85 8f68 f05c f0bf 8eb1 ecd6 f7d9 ea3f
00000130: d16e bfd5 242f bb3f 7caa 77b6 1e4d debf
00000140: 0036 563a ba12 f23f 1d12 ab2e e16e c9bf
00000150: 92fe a715 11a3 bebf 7d98 4e1d fb8a 01c0
00000160: 0c51 afa0 93dd b83f 9df6 034e 1502 d6bf
00000170: cdd1 a583 0060 ee3f 9d4a 64bb 655c e23f
00000180: 0d13 df8e b592 d1bf 3006 e4a8 8cea d33f
00000190: 02cc 669b d791 adbf 6c2a 58e4 7e79 f53f
000001a0: 5f3a b27d 0d67 f23f ad27 91d6 1096 ab3f
000001b0: a9b1 6a86 a6b8 f43f 33d1 452d 8f2b eabf
000001c0: 3630 c38d 9b97 d8bf 47b4 64b8 4dc2 12c0
000001d0: 3f6c 92ea d930 f8bf cc41 eb45 e03f fcbf
000001e0: e750 1930 b6fc 973f 8ac2 6027 ea94 933f
000001f0: 36d1 4ddd fecc fcbf dbb4 1ca1 d961 babf
00000200: 8ae4 5f89 01a4 73bf 4d16 5def 7267 abbf
00000210: 0e6d 91e6 e802 e93f c876 e3d2 714e d7bf
00000220: 146c 5f44 34d9 89bf 76bb 98d2 3d41 0340
00000230: 1c8e 9008 11ea 02c0 68db 479b 50be d7bf
00000240: 9821 5744 6c7c d53f 341a 3327 b004 95bf
00000250: 03e0 5c57 2415 b33f 79cb a342 4302 d73f
00000260: 46d7 e1c2 36da b0bf 1b9b d31c 5eec fcbf
00000270: 1c70 2516 d1b6 893f 63a7 c7be c904 d53f
00000280: 4982 1228 1958 a83f f491 8b7e 270f b23f
00000290: f65b 9a24 479e 1040 54ee a70a ac5f f7bf
000002a0: 18d7 0d51 ada0 cbbf e84e 757d 464c 633f
000002b0: 0fcd 285c 37d6 c73f d362 1d2b 0758 ddbf
000002c0: 266e a084 8265 f4bf 27fa f427 b4fe 0fc0
000002d0: af45 5fbd 63f5 d9bf f2be 70f2 9162 bcbf
000002e0: 24dd 55e0 b660 b2bf c317 bb33 0f90 c6bf
000002f0: 4756 9e9b eeb3 ddbf fd30 ad9c a110 0bc0
00000300: c758 54ea 1491 d93f 6636 8a23 b7c3 adbf
00000310: 6fed b1a6 416c 92bf e015 80d7 1fee 13c0
00000320: 32cb 4206 9f9c f63f 98e0 461a f3e1 cbbf
00000330: 5d97 ece8 0b59 c73f 1dfe ff6f 40d7 b5bf
00000340: 873d 076b c219 03c0 72b9 d183 fff9 f3bf
00000350: bb07 0031 8382 13c0 135c aa53 b0fd eabf
00000360: cf9f 5904 c1a5 bfbf 3ecc f788 ef35 d6bf
00000370: a9ef 2990 3154 b53f 9975 b00a 3bb9 d0bf
00000380: db5e 5f8a 764c f03f c92e bd3f fa21 f73f
00000390: 9cbd 4769 f9a0 f2bf 57c4 c3f1 7b95 01c0
000003a0: 3f92 3568 3f22 d83f 7caa 30f7 a884 e7bf
000003b0: c87e 2b11 3728 d8bf 5222 0840 8c63 0dc0
000003c0: 30e0 ee51 f8af c4bf 44f7 d93b b8cc d93f
000003d0: 63ef 9b46 56cb a33f bf86 8a2f e47d b3bf
000003e0: 4a65 472f 6219 10c0 1723 265a 4570 e5bf
000003f0: b636 0eef 5857 c5bf 61d5 b56f edf3 c8bf
00000400: 2c11 36de 63af e53f 60ee 7591 2a5e 04c0
00000410: 6154 f1ab 7c28 0bc0 738d 0845 36f1 0dc0
00000420: c0ec 75c5 096c f6bf 5eb0 2fe1 b09b 6abf
00000430: f947 53fc 1d96 b03f 2a94 367c 6bf1 e93f
00000440: 7a03 f61a 61da d8bf f7c9 e164 ede4 c63f
00000450: 5f87 53a7 ff8d d53f 1a5a 57ab 0e0d da3f
00000460: f927 d797 09e9 c43f 1a35 9256 3897 df3f
00000470: c7fa f776 8fd4 d13f 6297 3bf8 a00e e13f
0.5150988568187184 0.07581507624212724 0.050448412406584514 -1.275772501566916 -1.386488839937236 -0.3286509243866099 -0.5649567176441472 0.21136212861143416
-0.08686135019225975 -0.5292760762684536 0.0193032088317738 0.6365975404858686 -0.4953661016326193 -0.7852502234006911 -0.06102714240334928 -1.7694346856231762
-1.9852404191275845 0.919124436630094 -0.39558826535395686 0.1826590128919629 0.05926357677198058 -0.22565614291296626 -2.788347257875691 0.9262868859399709
0.18159795472125295 0.0036640624181353493 0.24449427604558002 -2.8691099150263195 -2.0309109688438465 -0.3537476736700579 -3.972545301208734 0.26280804246349077
-0.029837654169912603 -1.1822211117532806 -2.150054173196621 -2.052985793920996 -1.0226902088546408 0.8391074369188105 0.1061881086201837 -0.47345702952467383
1.1295721319942231 -0.19869627741549403 -0.11967570093838223 -2.192861775361108 0.09713099167794698 -0.3438771497602405 0.9492189952130105 0.5737789783473378
-0.274579419634663 0.31119076245531385 -0.05775331279746611 1.3421620292380352 1.1501593503959595 0.05387928599573342 1.2950806856780253 -0.8178172954781416
-0.38425339550008475 -4.689749604364869 -1.5119265711753227 -1.7655947428903458 0.0234249560219987 0.019122751859131294 -1.8000477451979129 -0.10305557425882077
-0.00479508018724418 -0.05352362796706398 0.7816051963122008 -0.3641628798921883 -0.01262131532342007 2.406856198583621 -2.36429030123851 -0.37099089779024164
0.3357191722284596 -0.020525696175150723 0.07454135067825977 0.3595131064204718 -0.06582968004098885 -1.8077069402731414 0.012555726517057102 0.3284172404370251
0.04754713644183945 0.07054373588068313 4.154568263932552 -1.460857431054042 -0.21584097345083175 0.002355706859512686 0.18622486114473033 -0.4584978028338302
-1.2747826748590199 -3.999367057956323 -0.4056023930871459 -0.11087906044917498 -0.071788244027506 -0.17627134347838877 -0.46410718152160196 -3.383120750460988
0.3994800842641663 -0.05813381489597873 -0.017991090583092836 -4.9825433418204454 1.413237595040027 -0.2178329351716044 0.18240498421908571 -0.08531573042272851
-2.387577854307611 -1.2485346936406043 -4.877453580500453 -0.8434678682414208 -0.12362295490458951 -0.34704197288300864 0.08331594247459741 -0.26130558055759817
1.018667736547221 1.4457952966503618 -1.1643003571042305 -2.197990311419328 0.3770903127354223 -0.7349438503200214 -0.3774545352625691 -3.6736073496324844
-0.1616201782287603 0.40312009663454185 0.038660713309552695 -0.07613969956085052 -4.024788607342382 -0.6699549446794631 -0.16672813103325773 -0.19494407610515466
0.677659925466775 -2.545979629909013 -3.3947690423033667 -3.7427792924151446 -1.4013765061670682 -0.0032480673485136132 0.06479060564313945 0.810720198253539
-0.388328815774052 0.17886130739095993 0.33679190960366684 0.40704695446530226 0.16336173929295209 0.49360474065982063 0.27859865778001985 0.5330357406898936

linear1.bias f8 [24]
00000000: 41b4 417a b9ba d43f 0749 340b 0bb3 cc3f
00000010: 5d23 38c2 ca42 a8bf 88ce 6d31 1474 f13f
00000020: 1d9b 53a9 d992 f13f b6eb 23d3 53cd ea3f
00000030: 3630 eb16 ea29 ecbf a7d2 8f03 8895 0ac0
00000040: b960 a969 d60a e8bf 949d 55e6 77d8 d7bf
00000050: 96f1 71dd 8683 f33f 9501 a197 12e6 d4bf
00000060: 75ce e006 201f e83f ca75 bd79 3f2d fbbf
00000070: 4e5a 7cf5 660b a53f f1f6 4951 c8cf 0140
00000080: 0360 320b 55fb dc3f 5f91 4966 578f f3bf
00000090: c861 af69 fb25 d3bf 8103 c4ec 5c1a d43f
000000a0: 6858 1d06 e496 ef3f 2052 98f9 fa9c b93f
000000b0: 0d38 1012 93c3 89bf d86e fbff 2381 01c0
0.3238967603600181 0.22421396300394056 -0.04738458271828592 1.0908395701234515 1.0983521093673467 0.8375643848261152 -0.8801165053969331 -3.3230133322016004
-0.751322943086982 -0.37258718007657277 1.2196110391806534 -0.32654251868736967 0.7537994512881158 -1.6985468631240672 0.04110261675503023 2.2264562941262445
0.4528401002257853 -1.222495460090691 -0.2991932422715107 0.3141090690769986 0.9871692771364566 0.10005158036830908 -0.012580059994459014 -2.1880569456678636

linear2.weight f8 [48, 24]
00000000: fdc7 c917 056a e23f bd18 baed 7342 b73f
00000010: a371 fd50 bdd6 dabf 7dfb 4d70 6c0a ebbf
00000020: c898 d8ae 28d3 bcbf 334a ff8c 7d49 0840
00000030: e7e8 c080 1bd1 f33f 84b5 9b86 1177 0b40
00000040: 6677 c497 d021 f1bf 2246 ce67 8393 c7bf
00000050: 38d3 8590 1436 b0bf 165d cc34 811c f0bf
00000060: 9b94 cfab 11c3 e5bf 9815 b9bd ac17 e43f
00000070: 65b2 4c67 a4f8 e73f 7984 e44f e59e 99bf
00000080: 3588 af4a e5be cfbf 4fe1 36c5 898f 1040
00000090: ab29 3cf0 82f3 cbbf af33 4f61 220b 02c0
000000a0: f7b4 61bd 0592 14c0 3252 2a9d 2f9a f43f
000000b0: 6389 6615 e779 f43f a9b6 7c70 da4f a73f
000000c0: c7e5 bf41 8b61 ee3f e8e4 627a 83e4 ecbf
000000d0: 13d6 339c 3cce f5bf f63c 1259 76c0 c8bf
000000e0: 7021 7ad2 5da7 a03f 99fc 995b 374e f43f
000000f0: b85a 113e 420f ecbf d97a 9beb ba21 21c0
00000100: fc48 59ec e31a f2bf 7952 6103 0818 f1bf
00000110: fe23 b9ee 1c1a cdbf 96bb 66bb b9c0 aabf
00000120: 0200 ef47 5c57 edbf 0e88 254b 044e b63f
00000130: c8cd 75de ee61 ebbf c470 e42a d6f6 d5bf
00000140: b909 5691 d1fa d4bf 1f58 99b6 1ef5 0140
00000150: fd17 ba36 586a eb3f d283 d36d 2ab9 0ec0
00000160: 3fd6 3114 916b 79bf 6e32 cff5 ff31 f7bf
00000170: 7197 5df9 6fbb bbbf a50b df18 6ed6 d2bf
00000180: 87df 8416 6576 e7bf 81d2 d709 961b cabf
00000190: 9141 8485 e960 f23f c5b1 50bb b028 e43f
000001a0: 86c8 77d5 3fd8 f13f bec3 504d 4b48 e53f
000001b0: 85cb 8d16 2dff d1bf 9012 5f81 b2b5 fcbf
000001c0: 2213 9284 61e6 f3bf dde6 e634 6389 bbbf
000001d0: f306 4193 3dd0 e0bf 9c25 7315 5ab5 db3f
000001e0: 1247 abec 174e c1bf 266e 3a82 cb6d e4bf
000001f0: 6bf1 08d1 d40d f73f 919d 8630 e45f e63f
00000200: 0bf3 fd9c a5e9 e2bf a3dd 8480 9ed2 f2bf
00000210: f459 7530 463d e4bf ffc7 fb73 02a0 0ac0
00000220: 23ab b31c 3e26 c23f 5c54 eb32 4793 e33f
00000230: d056 059c 54aa e9bf 10ac 25d7 85f9 c83f
00000240: 698b 51c3 9850 e0bf a46e 632e 296a d3bf
00000250: 13c6 553a 2ef3 e13f c401 baf0 0824 f6bf
00000260: 8180 da0c 23c2 f7bf ae73 d006 c4be f6bf
00000270: 74a1 babb ca03 aabf 6a1a 548b 9e1a 0f40
00000280: 08a3 1234 ca0b d13f e8a6 e7e4 6a34 e83f
00000290: c871 10b9 a135 cfbf a7f0 f212 7aad debf
000002a0: e098 2f21 f2bd e33f 5bea 7aa8 9275 dcbf
000002b0: 8bce da76 292a debf 553a 53f4 9391 dcbf
000002c0: c91c b635 0f13 e1bf d64b 50e2 01e0 1140
000002d0: bf9b ec91 be4c edbf cc9b f519 5813 e53f
000002e0: ea0f f9cd 841a f6bf 8c43 c2ca dee6 04c0
000002f0: acde 5d01 36f4 e63f d84c 44c3 3ca5 c63f
00000300: 8af3 653d 4ff6 d33f f500 cbc6 99c8 d6bf
00000310: e423 7fb8 e9d6 d73f 09a9 d763 8f2f d2bf
00000320: 361b 4e09 d06b f43f 8878 a630 be5a d03f
00000330: b886 9185 c568 d13f da23 d0dc cda7 fe3f
00000340: 1c98 9461 bde9 e6bf f9f2 79fd e925 e6bf
00000350: 0094 0b3a e4be b0bf 71f9 9c0d cfd2 d7bf
00000360: 1ad4 bd41 b484 da3f 7e17 b478 a966 bbbf
00000370: a39e c222 cd87 fcbf f706 2693 cfde dbbf
00000380: 33a0 7647 865f efbf 19f8 4064 b59c f73f
00000390: 086f dcb3 f54b e4bf 6248 31df 3d55 f23f
000003a0: 7394 7e90 d799 c3bf 4123 cc80 0d7f f3bf
000003b0: 5fca de76 b3d9 fbbf 7ce4 e790 61f3 f23f
000003c0: ae29 3247 75b2 ddbf 00be cdfe b7bc c0bf
000003d0: 149e 6c9c edf5 e7bf 058d 0268 9db7 d8bf
000003e0: d7e2 9bb0 2271 d53f b908 801d deba d83f
000003f0: 4039 56dd 97da d4bf ac0b ccbf 36b4 1d40
00000400: 0ea8 17da 49e3 b2bf 89f2 be48 9932 d6bf
00000410: 9535 7080 0ef2 f43f b122 e31a 37b3 873f
00000420: c94c 6380 b3c7 cc3f 5bc1 e60e 5c67 de3f
00000430: 6c5d dc95 5fc7 b23f f59f fcc2 e2f0 b9bf
00000440: 9b3b 3d86 7fad ca3f 7904 c959 6543 d03f
00000450: 2bd0 b94b ed0e cb3f e2d1 4f71 8faa 0340
00000460: d9a3 6abe c642 e03f 8e0b 5dac 320c ec3f
00000470: e31e 3e77 db78 db3f 3e21 7db2 219a cb3f
00000480: a7fb be20 342f ec3f 131a 0609 ae43 e0bf
00000490: 6a98 32c2 432f f6bf df12 6d68 3588 d1bf
000004a0: 9805 9055 aedf d2bf ac49 4965 a7eb 0040
000004b0: 1e7e 8cca 8312 f03f 550f 810e f7f7 01c0
000004c0: c2ff e034 994f 03c0 3005 8f64 1eb4 babf
000004d0: efa0 7652 3eef a43f aff3 9def 8be0 fabf
000004e0: ab18 d377 07ef e23f e536 d76d 87a6 fabf
000004f0: 397f 098e bc0a e5bf a790 01f8 a17e e03f
00000500: 6859 ec5d 8c5f e9bf c507 e4bb 3f68 e1bf
00000510: 8c19 fdeb 4df2 e03f 26be 4c9c 9404 f73f
00000520: 46ae 85f6 1ca2 c73f 479e efae 7a82 dc3f
00000530: 5540 303b 44bb cbbf b53a b63a 4cfa d43f
00000540: 4a78 f1f2 c06d f2bf f4a0 bf9d 1a0a e53f
00000550: b614 1217 1347 d73f 6df9 9c26 8621 02c0
00000560: 0cee a52d 8c00 983f 19a4 213c 8cbb 0140
00000570: c26d dd08 e160 e23f 53d8 18b6 41d8 1840
00000580: b9bb 92df 9cb1 d0bf 4c2e 7262 cad1 f2bf
00000590: 7517 28e9 8bd3 a5bf 2c30 8dc1 6d53 e6bf
000005a0: 222c 1434 3742 bcbf dc62 5a94 dc53 d33f
000005b0: 7c57 347c 69d1 f2bf acf7 0734 c798 c13f
000005c0: e0d5 3b86 b5f3 adbf ca1e 755e 6b54 1d40
000005d0: 41c5 f603 26e3 e0bf fbd3 a573 4b4d ebbf
000005e0: 1d95 3b4d db21 0bc0 74f6 4006 af94 e2bf
000005f0: 34a0 2050 6106 f13f 5297 000a 257b e63f
00000600: a8e4 f380 b286 0c40 2b1a 26d9 e6bb adbf
00000610: 1a10 bd72 5683 00c0 f1f0 08ac ec0c fa3f
00000620: 5f41 fcdc c7e7 0440 888a c745 b5a5 0b40
00000630: 1a4f 85da 741f f13f 2df3 b5c9 18e9 1ac0
00000640: 6b9a 28bd 39cb fabf f980 ddb1 2fdc 07c0
00000650: fcea 4a88 cf52 c33f 4e5b 19b9 63af 03c0
00000660: bc34 d395 f67f 11c0 7b15 e745 2b82 08c0
00000670: ca70 44f0 fd1d fc3f 5899 7d87 c8d0 16c0
00000680: 1e49 4f86 b72a 03c0 e5d8 cc82 abc4 f8bf
00000690: 997a 4bc5 8dd9 ce3f 66a5 8a95 5dfd ce3f
000006a0: 2fde f906 dfcd 00c0 9d99 87be 9378 00c0
000006b0: ac5d 7985 85b7 0940 1530 f145 cbbe aebf
000006c0: d417 63cd 261b d13f 0852 12dc 2909 c6bf
000006d0: 7a55 33a3 3987 d0bf 2c11 cc54 34cd d03f
000006e0: 4018 b1b3 c52b afbf 3d96 a9fe 730c fb3f
000006f0: c36e a291 dfcb d33f 836a 13f2 3ae0 f03f
00000700: 6e1f 89dd dc4e 9bbf 41a2 9b93 e9ea c13f
00000710: dcdf 65d9 2114 f7bf 386a 826d de83 d1bf
00000720: fa11 23b9 3300 d4bf 1d7e 35bb 4f0f c9bf
00000730: b61b 447c 3145 f9bf a26f ab5c 3c35 d23f
00000740: 3028 8228 5bd7 923f fdfe e459 0a50 ff3f
00000750: 619c 6224 9a6e cdbf f060 7cfe 4fab 07c0
00000760: a9f3 d270 0151 cbbf 5fe7 e1f6 924d febf
00000770: 1f61 f788 0354 d43f 1569 1075 05ba c1bf
00000780: b0f9 1060 20d5 ecbf f406 6cfd be0a c13f
00000790: 277a b757 02ae ecbf 2155 6750 e3b3 e4bf
000007a0: 220d fc65 078a cf3f fd37 69c1 98e1 03c0
000007b0: d9f7 7243 91eb 96bf acdd 535c 5895 02c0
000007c0: 4f41 5a67 9c6d d3bf 760b 2d1b 73b6 f63f
000007d0: 854a be00 7908 dbbf 414f cff6 e1f5 b13f
000007e0: 6370 6d06 0132 d7bf 8e5c 4eee 0d3d be3f
000007f0: c030 934b 5a01 c53f 9c3b 1269 abd5 f1bf
0.5754418816197809 0.09085773996239062 -0.4193566599767797 -0.8450224107217391 -0.11259702938750416 3.0358840003402974 1.2385516194759079 3.4331388965862875
-1.07075557026061 -0.18418924873962889 -0.06332520035159639 -1.006959158175794 -0.6800621371918568 0.62788998656531 0.7491018312044387 -0.02502020168424621
-0.24801317354928334 4.140173989748589 -0.218368880560161 -2.255436668614912 -5.1426000204930835 1.2876430644293007 1.279761394115291 0.04553110716947845
0.9494072231456635 -0.9028947248799826 -1.3628507711085873 -0.19337348317319653 0.03252690500545696 1.269095762079621 -0.8768626415502103 -8.565879214028813
-1.1315650207876038 -1.068367016986626 -0.22735940605551258 -0.052251628996024355 -0.9169141201928144 0.08712794146188704 -0.8557047219205112 -0.34319070996003753
-0.3278087539003099 2.2446874871775573 0.8567315167317698 -3.8404129581617577 -0.00620609923781995 -1.4497069932869198 -0.10832881773020887 -0.2943377726443777
-0.7332024993729512 -0.20396686058633764 1.1486602035039122 0.6299670847416158 1.1152952517118435 0.6650749692981817 -0.2811997146847534 -1.794359689099256
-1.243745344022678 -0.1075651172785927 -0.5254199863486221 0.43294384093004523 -0.13519572311502565 -0.6384027045746208 1.4408767857958888 0.6992054889459941
-0.5910213533639718 -1.1764206905626018 -0.632479757924385 -3.3281296788418326 0.1417920723100333 0.6117282862202376 -0.8020422980577795 0.1951148319743372
-0.5098384680571658 -0.3033545449268138 0.560935129104282 -1.3837975886709595 -1.48489670773418 -1.4215736643011314 -0.05081018010725105 3.887997711662412
0.2663445957683028 0.7563986273573535 -0.24382421051349312 -0.4793381867455175 0.6169367454683901 -0.44467607930315517 -0.4713233624163215 -0.4463853727328673
-0.5335765885401084 4.468757187033551 -0.9156182146151578 0.6586113459605882 -1.3814743085686083 -2.6127296295675873 0.7173109080021809 0.17691764387618636
0.31190854068682283 -0.3559936944329956 0.37249224679231774 -0.284152839186064 1.2763214457970213 0.2555385089016302 0.2720197491054068 1.9159678102025652
-0.7160326867931448 -0.6921281767568807 -0.06541277329559136 -0.37224174813663696 0.41434961719579777 -0.10703524777281179 -1.7831546171018224 -0.43547429437613466
-0.980410708977621 1.4757589260257247 -0.6342724335586079 1.1458109587151957 -0.15313238673585125 -1.2185187369488661 -1.7406496661539206 1.1844192180999746
-0.4640172190926489 -0.13075923863969763 -0.7487705283319337 -0.38620696217749667 0.3350302433678229 0.38640549546120045 -0.3258418714039131 7.4259901016511485
-0.07378064703485185 -0.3468383036049905 1.3090958611604482 0.011572294719728178 0.2248443962949749 0.47505856948102626 0.0733546963568778 -0.10133187542362505
0.20841974310539232 0.2541135193642457 0.21139303395796225 2.458281407593163 0.5081514090608109 0.8764890066598683 0.42925154347220323 0.2156412240531242
0.8807621612139557 -0.5082616974112305 -1.3865392289967766 -0.273938514689048 -0.29490240436288095 2.115065375613275 1.0045202171385266 -2.2460766919265702
-2.4138664370693457 -0.1043108935837338 0.04088778263695924 -1.6798209533728643 0.5916783657383083 -1.6656564989711395 -0.6575606130754529 0.5154580921048549
-0.7929136118353144 -0.5439757032147489 0.5295781716493351 1.438618288560869 0.18463480031219798 0.44546382030100456 -0.216652420902849 0.32777696355416747
-1.1517953386278514 0.6574833947206842 0.3637130475329501 -2.2663691536574135 0.023439588819639964 2.2165760705725117 0.574326054872863 6.211188168779773
-0.2608406241733366 -1.1762183995769133 -0.04262959691190719 -0.6976841717055371 -0.1103853704591278 0.30199350822071636 -1.1761259891258922 0.13747491875250029
-0.05849997771830906 7.332440830133871 -0.527728088132939 -0.8531853922601152 -3.39153156602937 -0.5806498644012223 1.064057648656683 0.7025323100431058
3.565770156329183 -0.05807420159094464 -2.0641297306010644 1.6281553955187145 2.613174177597258 3.4559121562500117 1.0701797996488893 -6.727633620958653
-1.6746156109817558 -2.982512845585117 0.15096468119539697 -2.4606394253600348 -4.3749640855941685 -3.063559099306699 1.757322252792664 -5.70388995842071
-2.3958578579851197 -1.548015128076764 0.24101421483552057 0.2421071033652808 -2.100523046970714 -2.0588755498058178 3.214610140577596 -0.06004939297471893
0.2672822004063822 -0.17215464826280447 -0.25825348794509007 0.26252468377085125 -0.06088083094123009 1.6905403087379363 0.30931843969458955 1.0547437149131447
-0.026668025037252567 0.1399814577810208 -1.4424150936229045 -0.2736736363819179 -0.3125123317697952 -0.19577976838171277 -1.5793928960936063 0.28449925470135373
0.018399643275678723 1.9570411216263317 -0.22993780876751926 -2.9586486703593593 -0.2134095955751978 -1.8939389842839416 0.3176277959405684 -0.13848942008991885
-0.9010164142890087 0.1331404435550706 -0.8962413514344164 -0.6469589777358672 0.24639980773654552 -2.48515463926651 -0.022382993451848996 -2.3229224408239215
-0.3035651215841612 1.4195433675347124 -0.42239213059034625 0.07015812183027227 -0.36242700221715135 0.11811911647815718 0.16410378160651895 -1.1146654228539097

linear2.bias f8 [48]
00000000: c753 05c8 73df d2bf d757 8aab e327 f4bf
00000010: 5b85 5ee2 68c4 03c0 aef5 e7ea eff0 e9bf
00000020: 7a32 e03d 6621 dcbf ace6 cc5b 1128 b63f
00000030: d90a 7192 5e6e b5bf e44e 3ed1 5c1a e3bf
00000040: 19c4 b811 fb41 d23f 7cde f136 acd6 d0bf
00000050: b996 074b d1a4 cc3f f6b6 271f 07e4 febf
00000060: 9bf4 8dd2 4779 d43f 0ee0 8dae a220 f3bf
00000070: 9d11 3df3 dc40 e6bf 32c7 80c7 b8d3 86bf
00000080: e61b 351f c907 d33f 33e1 b5df 6659 e33f
00000090: 062d 26b9 5ec5 e8bf e111 d669 9215 e0bf
000000a0: 9be0 ddc0 4300 05c0 7c08 e18c 1c42 bd3f
000000b0: bd23 b0f7 d5ec cf3f 16f6 f37f 8f55 ebbf
000000c0: 180b cb60 f2f0 eebf 2b0d 2207 0378 d4bf
000000d0: 2594 942c f5b8 efbf 1ef4 ec70 95eb f1bf
000000e0: 3a1a 2b8c 9d4a dcbf 892e 3a3e b46c dfbf
000000f0: 6311 9f3b 6796 d83f 0fa5 e835 ef7a d63f
00000100: 5130 4b06 9701 e0bf 78f6 2396 b5cf bdbf
00000110: 9064 7384 2c03 01c0 d7a6 1ef2 8879 edbf
00000120: 2a1f e75e df09 e1bf 34c9 ff1c c269 ffbf
00000130: 047e 6f5f f3f2 7b3f 2303 052d b58d 02c0
00000140: a6ef 416a 29bc 08c0 0b49 5a19 26e0 eebf
00000150: fded 7386 0d02 00c0 fc44 9f65 a2d4 ddbf
00000160: 306b f825 68a6 b53f e759 2f31 f529 f5bf
00000170: bb0b 0148 d652 d4bf b386 d975 42ea ddbf
-0.29488844426424204 -1.2597386074826227 -2.4709031758399482 -0.8106612766275043 -0.43953853647762 0.08654888621540618 -0.0837153537295693 -0.5969680868897425
0.2852771447242631 -0.2631025826044391 0.22377983249241654 -1.930670854282139 0.31990237771953794 -1.1954676455043258 -0.69541785724191 -0.011146014774655908
0.29735019729235856 0.6046633118958539 -0.7740930191224897 -0.5026332919229014 -2.6251292293273543 0.11429003180913527 0.24941515535490835 -0.8541944026071089
-0.9669124498835542 -0.31982494064887373 -0.9913278456411986 -1.1200155650287864 -0.4420541638213852 -0.491009770172902 0.3841798860778651 0.35125332130935843
-0.5001940844463296 -0.11645064273394634 -2.1265497539248557 -0.9210858086491623 -0.5324551442690553 -1.9633198864726866 0.006823492693882386 -2.3191932217745417
-3.0918758679744824 -0.9648619170350526 -2.001002359784023 -0.46610317157781345 0.08457041670810095 -1.3227435990607945 -0.3175559714474578 -0.4674230719448175

linear3.weight f8 [24, 48]
00000000: 845b a3b0 94a9 c43f a9c0 ff52 9c7a da3f
00000010: 51fb 9614 f528 c4bf aca3 1da1 9cd3 d2bf
00000020: bf33 e273 67b6 85bf 4b3d e705 4dd4 dc3f
00000030: 47ec 3e39 8c0b b23f 968f 9252 7141 623f
00000040: a6d7 b340 0826 44bf 5530 ce9f 99ac f4bf
00000050: 4476 7e2d a538 dfbf 11a8 1e35 a73a e03f
00000060: 7e35 a147 25a1 c3bf 6e97 0c87 8f5c a9bf
00000070: 0be1 eb76 9f49 353f 9bee f551 5abb bfbf
00000080: cc51 98ad 6820 de3f 776f 77cc 2421 693f
00000090: 474d e27e 2988 d1bf ca53 d4a1 c599 a4bf
000000a0: d079 83f3 f41a f93f a5bf 2d4f 554a b3bf
000000b0: 0fe5 c7d6 de2a a7bf 81ed 504b f09e df3f
000000c0: 58a8 44cd e299 d1bf c45a 16ea de3d b3bf
000000d0: 17db f987 11c5 c2bf 0277 7fc5 8ed8 cf3f
000000e0: 498d ca14 cac6 adbf 9e7e d52b 63f4 a63f
000000f0: 9d9f 7ecc 432f d3bf cb5a e670 ed8a d0bf
00000100: 6bb0 7521 1a7a cfbf 3b7c b48e 709d a8bf
00000110: 77eb 7bc6 82ae ecbf 0316 193f 185a d43f
00000120: ff58 120c a706 b7bf c676 ab67 8822 633f
00000130: face 4570 7256 b83f f3ba c7c9 8bce fe3f
00000140: 5a8c 594f f2ab f03f fc52 dbc3 e25d a5bf
00000150: aac0 30a7 53ee c93f c711 c131 73bf c9bf
00000160: 8cef 429c 9fa4 e73f 0bef 6bfe 5c46 243f
00000170: c5a2 8759 e1bf b83f 58c0 d321 fe9c b13f
00000180: e4f2 eaaf 61f2 e0bf b020 1e0f 863b d7bf
00000190: ba73 7bd7 48f5 f23f cc01 020c 2ea3 d0bf
000001a0: 84cf 205d 63a5 d13f 52f2 6205 e383 d9bf
000001b0: 0a84 0ecf 1303 ccbf 68bb 068e 1ef4 dcbf
000001c0: 18c4 1623 7c1e d6bf 0db7 22f5 3ff2 dd3f
000001d0: 1478 86aa 3c05 cb3f 0ec7 d8be 061f dd3f
000001e0: d394 c299 c0dc d5bf 45cb e6a6 9c50 b23f
000001f0: 2d29 7985 54a4 d23f f19f 195b d2ea e33f
00000200: 1fc3 b137 ddbe e33f e3b6 10fa be3c c7bf
00000210: 132c fc43 4b49 dd3f 35b1 0e80 fb23 f3bf
00000220: 4b44 0461 c177 e8bf d4df e87c 595c ca3f
00000230: 1d1b e516 34be c5bf ffea 2e90 e8eb eabf
00000240: 8923 8a6c b3ba e13f 746e d241 d552 cf3f
00000250: 5b4f 977c f4c8 cdbf c585 b7bc 5e7e b63f
00000260: 2808 d8e9 a7c2 d6bf bf42 272b 9924 93bf
00000270: 48af 5771 a757 f6bf b686 37a1 784a d43f
00000280: 9f4e d3ba 1ac4 c23f 51d7 9ba4 c5a5 ebbf
00000290: 4c32 1fb8 d184 e23f e8b0 029d 3d6c a33f
000002a0: 6715 1b73 f67f e53f 4a7b c939 1379 ce3f
000002b0: bf6e 2abd 2a13 753f db1b 90c7 9526 a43f
000002c0: 8567 7109 faa1 e6bf fc99 c160 f65e e03f
000002d0: e557 78e2 05e3 e8bf df98 204f 0977 f23f
000002e0: f8a3 c8cb 1c06 d3bf a5d8 da29 258f ebbf
000002f0: f311 16fa 4d50 e8bf 3f9e 61cd 0717 d73f
00000300: 7ddd ab05 fc37 c33f 42f0 e154 adfb e7bf
00000310: 423e c51c e59e f43f 0bc7 22c1 e98b c3bf
00000320: 4927 a2a9 1c02 d9bf 4d1a 143a dd82 a8bf
00000330: 59f0 f173 1e2e b2bf cead 9c08 726e d23f
00000340: 07d1 2d5a 1d32 a4bf bc00 ff7d 3067 d3bf
00000350: 7251 aba2 11aa d03f 15b9 3f03 d9ce bb3f
00000360: 7441 2863 c981 b7bf 3769 adde 0440 a03f
00000370: fb18 76f0 446d b33f d7c4 a69e 3436 e13f
00000380: 1558 c2cd 5d59 b7bf 494f ab93 9f7a e03f
00000390: 57cf 2f64 0e1b e23f 3ac0 dbde dbdb bdbf
000003a0: de66 a32f e1bc f23f e4e7 94f9 e5cb cb3f
000003b0: 828a bd78 b8ef c6bf 411a 9ebf 6238 8bbf
000003c0: 02e1 0f9f 742d d2bf 870f 5816 fde4 e73f
000003d0: 50c4 2a59 f456 ca3f 88cd 8bed 8c81 d03f
000003e0: d57e f42f 2ba1 c3bf 3ef1 cc60 c2c2 d33f
000003f0: 6e3e aa85 278a bf3f ba96 1d6a 68bd c93f
00000400: 87e2 215e 13da c43f a2fb 3cc4 1111 cbbf
00000410: c6ed 3db6 1c5e e3bf a377 5268 7059 ca3f
00000420: 9cb6 59be 5479 c23f 8a24 fc5c b51b 96bf
00000430: 9fc2 9611 bbb4 e13f 9b92 1008 dcd2 e03f
00000440: 7300 d5f7 4a7f e2bf 2cda 9f4f 7c66 a73f
00000450: a970 b54b 7e47 a9bf e431 f2e8 ee1d a9bf
00000460: f1c5 9d5b f735 c5bf 341d e86f c127 bfbf
00000470: be1a 3057 da26 883f 4f72 062c 7fc0 a4bf
00000480: 7d6f bb04 4a37 aabf 946b 61be 1a34 d23f
00000490: 1819 b3d0 2742 ea3f 067f 322f b055 da3f
000004a0: 8ea1 f23d 8904 cebf ac9c 419b f374 d1bf
000004b0: ca3e 19b8 b16c c8bf 8772 9539 97f1 e3bf
000004c0: 4d08 e738 692e a33f 58f4 b011 7585 c7bf
000004d0: 7340 a380 7490 f93f 93cb e044 d0b7 ff3f
000004e0: 41f6 3707 8282 ec3f 0227 42ac 28fc 9f3f
000004f0: db62 2996 b0db b23f d19b 982d ed91 cdbf
00000500: 676a 24de b87f d0bf bfc9 b45a 736c e23f
00000510: ad12 5173 dfa1 db3f 7a19 f9d0 053e bd3f
00000520: afdd 0952 0446 fdbf 1664 1dfb 12c1 d4bf
00000530: a459 bc5f 5b34 d1bf 6506 298e 6578 c73f
00000540: 05bc 4b19 aa15 f33f c4a9 4f51 6cab e13f
00000550: afed 38ef 6904 debf fd0a 97f6 6624 d2bf
00000560: 7391 cd91 c8ba cf3f bef1 33bf 3d1c e63f
00000570: 475c d6c6 ea56 b93f e69c f56b 5cce c73f
00000580: 1877 bac5 1643 c73f c5cd 69ae 558a b6bf
00000590: 75e4 72ca e71e 0440 5bde b0f6 9b29 eabf
000005a0: f8e2 0b8d ea30 d23f 2da8 2f69 d9ce c9bf
000005b0: 67ef 87ad 3da0 01c0 7926 d81c b26a d83f
000005c0: 3c34 9ef7 8175 abbf b7c6 a594 c90e cb3f
000005d0: 31b8 bcd6 c62b debf b2d0 ce16 cdcf c43f
000005e0: 473d bf4b e459 953f 98e9 74db c3b5 babf
000005f0: b5e5 ccb8 154e d5bf 7204 cd21 f9e7 c13f
00000600: a94b 31ce 1c1e ddbf 479d da4f 2f53 8ebf
00000610: af89 64bc bca5 ecbf 8da5 71b5 e476 e73f
00000620: 1f04 2774 23a4 c13f 6aa9 221b 3709 dcbf
00000630: 8cb3 4a1a 6fd7 b1bf 65f6 66d4 4a1c f8bf
00000640: 5fcf 14dc 65c4 cfbf f9e1 216d 8eb3 d03f
00000650: ca9f d39a 7257 e2bf a687 1bfa f161 e63f
00000660: 9aec 4c5c cc05 a2bf fa18 7bd6 193e cf3f
00000670: 50fb 1799 9373 933f 7d25 ded4 1afd f73f
00000680: 17bc 468b e57e f33f 8c9a f361 0568 e3bf
00000690: a429 7d8d 7f75 c03f 7512 8b97 b362 01c0
000006a0: e7f8 7f90 7993 f2bf e6bd fefe a2a5 b5bf
000006b0: 212d 83d9 17d3 e5bf 212c 2c36 c5cd e0bf
000006c0: 6e84 4c45 cffd e53f 8681 cb78 e7ab e43f
000006d0: 5842 0719 b93d dfbf 7b82 8e0f 48d4 b0bf
000006e0: d753 c459 6c76 ccbf 181a e960 bb12 ce3f
000006f0: 2cf1 9a73 c2cf 00c0 11ed a8ca 6eb2 d0bf
00000700: 65c8 0326 0a5c a33f 6a1d d95e 55b3 e8bf
00000710: 195e 336b a41d a33f 33d3 a5d8 243d c13f
00000720: f090 0de0 2719 e13f 3860 93b8 f4dc d23f
00000730: b470 8cf5 2601 bdbf eacf 38b7 c766 c0bf
00000740: e236 5e11 0fd6 993f a27c bd60 bf52 ee3f
00000750: 71e7 9dfd 04e4 f9bf 644f e637 7159 e83f
00000760: 0654 eaa0 1569 aebf 9070 e2ae 2665 debf
00000770: 1583 4cfd 32aa f7bf c9e9 3fa7 2390 c13f
00000780: ba63 1d6a 012e c6bf 73b8 7347 bb5d c43f
00000790: ced8 f512 fc12 ccbf cd4c b7fb 7681 c93f
000007a0: 229f db30 5683 d73f f08f 9d76 9179 cf3f
000007b0: 0fae 635c 9861 f13f 16fa 9e02 d161 d63f
000007c0: 189e 4f7c 2de2 f5bf ed5c ac3b 5f0d bfbf
000007d0: 69a2 92e7 228e edbf 2927 9d62 dd7a dbbf
000007e0: 2d4b 8c79 5c9e b6bf 5789 e0a5 f633 e2bf
000007f0: 4b0f 2813 b40c 0740 5034 df45 a836 e23f
0.1614251959315106 0.4137335596597134 -0.1574999189887998 -0.29416576131785166 -0.010601814483630066 0.4504578168534478 0.07048870465853084 0.0022284711199791014
-0.0006148853584864069 -1.2921386949920095 -0.4878323501851336 0.5071598088736683 -0.15335527417702716 -0.04953430675077085 0.0003248228376118301 -0.12395252705567332
0.47072808220516715 0.0030675619816359872 -0.27393567458166895 -0.04023568726021372 1.5690812599419708 -0.07535298522065988 -0.04524895068966305 0.4940758452900909
-0.2750174526760296 -0.0751628228666546 -0.14663905276730624 0.24879631656124707 -0.05815726760672619 0.04483327779848632 -0.2997598168390086 -0.2584794619119008
-0.2459137595536761 -0.04807616941456457 -0.896302592910941 0.3179989448729829 -0.0899452595207073 0.0023358024749161347 0.09506907692940195 1.9254262811697884
1.0419791316606024 -0.041731916816990705 0.20258565581889815 -0.2011550896587677 0.7388456394178191 0.00015468487909930275 0.0966778606012993 0.06880176854952091
-0.5295875965017243 -0.3630080363877921 1.1848839204096593 -0.25995970890656106 0.2757194909529448 -0.39867473150278443 -0.21884391412916698 -0.4523998629546697
-0.3456106512704209 0.46791075648330677 0.21109731985501468 0.45501869809514595 -0.3415986539424242 0.07154254030937775 0.29127991709232753 0.622414758615376
0.6170488441258363 -0.1815413208982398 0.4575985111156921 -1.196284771179376 -0.7646185774666575 0.20594328497986558 -0.1698670493880962 -0.8412974182204777
0.5540406341470866 0.24471536363568058 -0.23269516070888127 0.08786575419755767 -0.3556308539992892 -0.018694298991081434 -1.3963999202196238 0.3170453619369299
0.14660963175139316 -0.8639858450903636 0.5787132831697561 0.03793518582946992 0.6718704460296693 0.23806991883881273 0.0051452321519282465 0.03935688077040541
-0.7072725471909825 0.5115920915384886 -0.7777127669567078 1.1540616122161322 -0.2972480764461234 -0.8612237756231208 -0.7598028072830502 0.36078066880006426
0.1501460101787692 -0.7494722993719807 1.2887927173468516 -0.1527073090597287 -0.3907539040161408 -0.04787341436354051 -0.07101621943178439 0.2879910549260928
-0.039444844492125646 -0.30317318252856373 0.2603801811758536 0.1086249955112389 -0.0918241374095084 0.03173842638234919 0.07588606711042083 0.5378668879185636
-0.09120737336556346 0.5149686702884334 0.5658027607700927 -0.11663603011015847 1.171113191687645 0.21715998350720078 -0.17919069190527998 -0.013291141007141795
-0.2840243867244824 0.7467027126699443 0.2057786403070474 0.25790713498937423 -0.1533559784083908 0.3087621636693888 0.12320181859308274 0.2010927694456564
0.1629051408415487 -0.211458416766587 -0.6052383002674382 0.20585446447233577 0.14432772917227943 -0.021590074348783385 0.5533118575604766 0.525739684821548
-0.5780386772603506 0.04570377799966638 -0.04937357591799813 -0.04905649751262667 -0.16570941899730898 -0.12170037252518712 0.011792856012119098 -0.040531133770148935
-0.051203072621972524 0.28443020431375854 0.8205756260074706 0.41147999390703693 -0.23451343083185033 -0.2727631584334158 -0.19081708420934823 -0.6232410549815349
0.037463463016607614 -0.18376029361562263 1.597767355433487 1.9823763552237537 0.8909311429012591 0.03123534728414424 0.073664700184405 -0.2310158226621
-0.25779554074839556 0.5757385989766631 0.4317549348964274 0.11422764160042745 -1.8295939640646386 -0.32428431055956375 -0.2688206133765567 0.18336171571177143
1.1927891719931278 0.5521756733044687 -0.4690193973690055 -0.28347181397491267 0.24788767928397312 0.6909474119598185 0.09898249964167959 0.18598513862091365
0.18173489241319696 -0.08804831989419089 2.5150905433952695 -0.8175792520696165 0.284235608807236 -0.20162503849070515 -2.203242641173279 0.3815121919329623
-0.05363088748627162 0.21138877638036543 -0.4714219185870006 0.16259158719697592 0.020850722430450188 -0.10433601482228594 -0.33289092108642687 0.13989175939972004
-0.45496292243950137 -0.014807099937867675 -0.8952315978570392 0.7332633537127308 0.13782160922531347 -0.4380624546999089 -0.06969351188554479 -1.5069073006592586
-0.24818108793408108 0.2609592500444076 -0.5731747650106567 0.6994562039292205 -0.035200487391614035 0.24408266995141742 0.018995577067467295 1.499293166651426
1.2184806290131343 -0.6064478791348207 0.128585762106309 -2.1731941069904743 -1.1610046047713298 -0.08455866551843591 -0.6820182083405691 -0.5251184518869004
0.6872326234335 0.6459843978191635 -0.4881422752778568 -0.06573915843774529 -0.2223639906229937 0.23494665367088952 -2.1014451057109422 -0.2608906725979106
0.03781158174560132 -0.7718912937643101 0.03733552750207653 0.1346784646845208 0.5343207717928902 0.29473608040780475 -0.11329883093680132 -0.1281366009367269
0.025230632243213764 0.9476010217148494 -1.6181688219935177 0.7609182445325868 -0.05939548100756302 -0.47492377356116666 -1.4790525335776625 0.13721128145682673
-0.1732789772165953 0.15911046017521677 -0.21932936597631286 0.19926345148869587 0.3673911549690151 0.24589746753474584 1.086326943298335 0.34972024208028196
-1.3677191596888232 -0.12129779059283737 -0.9236006281763142 -0.42937407140981293 -0.08835390059929855 -0.5688431968485855 2.8812028404808294 0.5691720356641188

linear3.bias f8 [24]
00000000: 48f6 c503 45d3 ed3f ed43 01ab 9943 febf
00000010: 932f 8348 7c11 d53f 7449 370a aefe aabf
00000020: ebaf 0325 ca3d e7bf 9e4a 9053 6562 f3bf
00000030: d614 acc7 5412 edbf 5f0b 8f72 ed90 e03f
00000040: d117 84b8 4321 07c0 a928 426e d17c d4bf
00000050: c8f3 9cb5 b24c bb3f 5262 bd08 55f6 e0bf
00000060: 8538 b054 f264 03c0 b530 9551 db7b c73f
00000070: b984 f70c a0be d7bf 5465 2c5a 6d3b c83f
00000080: f713 301a 767f d23f e6d6 a008 f682 dbbf
00000090: e5b6 db6d 00bd cdbf 5679 ed47 d30d bebf
000000a0: d0af 6bb3 ce33 dcbf 23d4 8a08 ce03 00c0
000000b0: 3218 db6b 5dc5 d2bf 48d8 e7b9 3c9a 01c0
0.9320397447297148 -1.8915039710884642 0.32919222909253526 -0.05272430300432776 -0.7262926791131553 -1.211522413654769 -0.9084876918647307 0.5176913487888263
-2.8912424483596415 -0.32011829154419985 0.10663906988061378 -0.5300698443125589 -2.4242903343466105 0.1834673069337264 -0.371009838736494 0.1893135729122074
0.2890296226253776 -0.4298682293186701 -0.23233037342236354 -0.11739845758481712 -0.44066207429454796 -2.00185782121345 -0.2932961991576831 -2.2003111385229523

linear4.weight f8 [12, 24]
00000000: ae0a 6891 69af cdbf 5ad2 9bc2 f625 0dc0
00000010: 9133 c7e9 3e91 c2bf 6624 00e9 5334 a8bf
00000020: 9008 d54b aa0d bbbf 6abc a7d8 4f31 e63f
00000030: a829 be94 d715 da3f 9ff3 f816 a223 b43f
00000040: fd26 df0e 0a7c 1640 2cbe d3aa ccb6 ba3f
00000050: 6f7c 1d75 acf0 ea3f b6b3 ff39 7330 d03f
00000060: 743b 968b 9ed4 ce3f ae72 c60e 555f bcbf
00000070: b050 04d5 cd78 94bf af6d 1179 b133 bcbf
00000080: ac8b 51a5 4bd0 09c0 992e c3cc b9b0 0340
00000090: accf 71c8 f9b5 bc3f a3e7 baa0 00df 0540
000000a0: e21a bbb5 8a0a c9bf 7794 dc9c b762 f43f
000000b0: 7329 0c8b 5a34 b4bf 7e2a 3582 7318 9d3f
000000c0: df93 eed0 4c94 c1bf 20d2 6b6e 2f26 1240
000000d0: a55f 65ee 4961 91bf 7726 6c87 f3fc 873f
000000e0: 0f32 af12 50f1 e3bf 49cb d830 7419 c53f
000000f0: 0324 2874 777f babf c181 c7dc 6c6b cc3f
00000100: d667 15b1 979a f7bf 7bae 6fae c8da a63f
00000110: 9dde 2365 b067 efbf d517 918f 0d51 cabf
00000120: f8a7 6a21 ec28 e3bf fd41 1812 e67e c8bf
00000130: a5ed 148c 7a69 d13f 5fe5 5fdf c119 dd3f
00000140: 7d91 f602 143d d63f 16bd 4ad5 c744 cebf
00000150: 4061 8387 165a 9d3f 1a3f 2c84 4f80 f2bf
00000160: 8652 64f9 9a3a cabf 787c bbff efe0 dfbf
00000170: 71eb 0fa8 bfba dd3f 870e 8963 3a96 debf
00000180: 56e1 877d aac0 c13f 2a43 b968 f3f4 d03f
00000190: 3b97 2c5c 429c d3bf 2e00 1c3c 4c18 b9bf
000001a0: 153b 9428 6b40 d13f dafa 874c 3afc cb3f
000001b0: 77b9 2ebb 3aab b3bf 0469 481c aa9c b73f
000001c0: fa99 17a4 e716 f33f f245 1573 16b4 ba3f
000001d0: 4398 98f7 7168 b03f aa11 c81c 2c70 bd3f
000001e0: 60b0 a5a0 6d99 0940 0324 3584 698a e9bf
000001f0: 07c5 518b 1937 c6bf 385f 6951 3eb1 d93f
00000200: 085e 4100 5247 c6bf 840f 6d4d ddda b53f
00000210: bd29 9f20 6978 763f d7f3 8f38 0a0a b03f
00000220: 10f9 fec0 2d95 be3f 1b14 23e7 b91b 83bf
00000230: 8b9f 8b79 b48e b93f 252e 2c70 9010 b33f
00000240: 422a 749a 0904 d4bf 7159 30de fc44 13c0
00000250: 94d1 f3f7 1956 b2bf 86ac d0af 19d4 c53f
00000260: d5e7 db53 da0c d4bf 254f 6ce6 8680 c8bf
00000270: efbb c27a dfda dabf a2cd bfb5 5811 a0bf
00000280: e2aa 9c9b 31be 0240 9520 4b58 d7aa b0bf
00000290: bcec cf75 0641 ea3f bc1e 08ac 3eb4 d03f
000002a0: b418 9d5b 9cb4 d63f 81fc e114 55e8 a8bf
000002b0: db02 d28b 3f8d bdbf 41ee d388 2cdf d5bf
000002c0: a62a 9dd4 735b f3bf 00ed 6bf3 a6ee f83f
000002d0: e540 5d16 0d77 b03f ab63 2ecd e724 f43f
000002e0: 899a 13c9 c434 cbbf 633a 2bdf 7d71 da3f
000002f0: a5fa 65ee 6062 d3bf dd0d 9b11 1312 ae3f
00000300: 2a53 3cc1 2cf7 d8bf 0aaa 0193 f9ff f7bf
00000310: 0506 a91b 82a0 b63f 23bb d6fb 0d72 d23f
00000320: df51 90bc af41 e9bf a642 7907 5d86 dbbf
00000330: d94e da6d 3fd6 f5bf db56 123c 074e b03f
00000340: 038f 7b8e 1a37 e6bf dd6a 344f f2d1 a7bf
00000350: d11b 845d a5a6 e7bf fa1f a353 0b32 b0bf
00000360: f596 8fea 11c8 bd3f d835 db01 e7d7 a6bf
00000370: d885 4334 c19e a2bf 21a4 4498 b735 e1bf
00000380: e408 c09a 5e23 ba3f 78bf 93b3 ec5f d7bf
00000390: 9ab6 081b 825a b8bf 2560 048f c242 c23f
000003a0: c00b f1b4 e22b d5bf 9b16 9bd8 2808 d13f
000003b0: 60f4 05ff 1948 b13f 862c 9399 69c2 e9bf
000003c0: edd1 4e40 43b7 ddbf ef56 d40a 6f3d 0240
000003d0: 7ae7 b74c 5be4 d5bf dff9 a2d1 b5b1 a2bf
000003e0: 621c 4130 b069 ed3f 6d3d c372 6af5 f03f
000003f0: 21f3 f442 0ce5 d7bf 6f7e 1dc4 d509 b23f
00000400: 422b d9f1 71a7 1b40 681c 7625 f7c5 dabf
00000410: ffa3 d10e 3b4f d13f 86a5 52a0 af05 d5bf
00000420: dfd7 d343 f67a d2bf 1414 5df6 dcfc d83f
00000430: c804 b187 bde8 adbf 12ad 43a0 508e e2bf
00000440: c9e7 8d33 ba9e e4bf edc9 2ea2 0038 aabf
00000450: dc58 ace9 0163 d4bf 085e 8216 13a3 c23f
00000460: 72df 68a8 6d11 b2bf e9cb e048 af59 b9bf
00000470: 76a5 58d9 592d e6bf db58 f5f0 07ff df3f
00000480: 575a a73e 34d1 bb3f e8c8 cc8e f062 e73f
00000490: 9d21 9f1e 8fa0 b53f 478a 1254 0244 9fbf
000004a0: 1781 eb27 697a e33f d288 0fb0 3f49 d4bf
000004b0: fed0 1827 0c7a c2bf 1e4c 4a29 4fe6 8fbf
000004c0: 95ac 612d 4100 e33f 6342 b78c fee0 b83f
000004d0: fbe9 cffc 6584 cdbf 78fd 5c3b d37b ae3f
000004e0: c6be 8713 f010 dbbf 5bde d07a 82e6 a43f
000004f0: fc25 c012 69e8 b33f 123c ed9b 78dd b03f
00000500: ad68 b25b c43d e1bf 5890 cbed 46f7 d13f
00000510: dc6d 1a85 870f 7bbf f9e5 aa5b c8f8 ca3f
00000520: db2d cc97 01a4 b23f ec3e 9336 5723 dd3f
00000530: bf49 bb22 1acd b53f b734 5b30 fdaf 803f
00000540: e7a2 b976 bb0b 79bf ad6e 9f27 d1ec aabf
00000550: a2fc 7234 cde9 c73f 7716 807d 4681 cd3f
00000560: 2659 7fa8 3612 80bf de6c c22f 17b0 d43f
00000570: 4b56 92d9 8861 d93f aca1 af60 e97a e3bf
00000580: 44b9 186e 3767 e7bf ca7f c0c1 793e d0bf
00000590: 3bf9 cb81 faad 8c3f bc15 4adc 4dfa d1bf
000005a0: 647c 891d d9fc e03f 94dd ae12 2a89 ccbf
000005b0: 3052 b099 206f c73f a8d9 193f cf8f edbf
000005c0: 8d8a 56af 712c d1bf 346f e97a 0711 a53f
000005d0: 4e32 fe86 b8e1 c63f b468 35cf 8d05 b03f
000005e0: 9e48 0ef0 b0d2 cf3f 7ed8 6f73 1e63 a6bf
000005f0: ee43 0fa3 722d adbf 05f3 86bd 5d7b e3bf
00000600: 688d 7d51 4b58 d6bf c8dd b917 f77d e13f
00000610: f175 b420 731a 70bf 89f4 2390 c525 cd3f
00000620: c4ea 8e72 aa2e b13f 06e0 edde 02f3 a1bf
00000630: 4d9a 119c d6f1 e33f 2165 807f bf85 bfbf
00000640: f95c 989b 8e40 8abf f6a7 64c4 1ba2 d8bf
00000650: 3357 a3b4 15c7 a33f 5036 62c1 ea56 d0bf
00000660: 99c8 95b2 1108 c5bf cc69 482f 6a2e e73f
00000670: caa1 a4b0 4334 d63f 79b1 3a85 d6e5 e3bf
00000680: 9786 e3a2 2058 a43f ab86 1256 def6 953f
00000690: 1cc8 ac94 9bdb bd3f e437 0558 c825 8ebf
000006a0: e718 a62e 0a5e b7bf f1ad 5907 d87a a3bf
000006b0: 8622 8681 eba7 cabf 042f be67 06d5 d6bf
000006c0: 5c0f aefc e89b c7bf bea1 f662 f0ac b33f
000006d0: 2d71 7eb2 bebf a03f 1bec b615 2d98 d4bf
000006e0: 4efb e044 b4cf c8bf f853 4612 7e4a a93f
000006f0: cb1b 6475 5a13 c23f 1c54 932a 6244 de3f
00000700: c2db a788 295f b93f d878 7af8 8736 b43f
00000710: 039c 029a 76d7 86bf 0e2e 2148 d88c c3bf
00000720: defe 3eda 3568 b23f aef5 0c82 1a4a a5bf
00000730: 23f4 abd1 db0d bb3f 30b6 bab3 a8d1 c33f
00000740: a80e 0ea7 b037 6abf 656e 3c59 70ef 60bf
00000750: b6e2 5d61 df11 f03f d28b 174e f3a9 a5bf
00000760: 1abf a97b 8e8d cfbf 8286 8516 1cd5 903f
00000770: af5f eeeb 0f31 c73f f467 879e 7a94 d63f
00000780: 8694 ef14 cb52 d2bf 9e1d 35f8 75be ccbf
00000790: 6621 111d d0f5 e5bf fd12 dd2e 8fc2 a03f
000007a0: f26d e6a9 9c71 91bf 975f 9903 03f4 8e3f
000007b0: 88af e2cc a13c cc3f 00a3 2216 23e8 8fbf
000007c0: 571e a1a3 e20d b4bf aecc cf5c f6aa a4bf
000007d0: d03a 3855 ad8e a63f df39 0e6f 31a9 ee3f
000007e0: b075 9c4d db03 a0bf 41fc e58b b9da c33f
000007f0: 5b4a eacf 5807 d83f 0873 9a37 87ca d33f
-0.23191566085741527 -3.6435370639613156 -0.14505754866550238 -0.04727422923321782 -0.10567726470347538 0.6935195189997903 0.4075831368033058 0.07866871891833548
5.621132118578086 0.10435179873069761 0.8418791091352328 0.2529571596522219 0.2408636266304388 -0.1108296547958598 -0.019992080809132673 -0.11016377645267171
-3.2267067828665486 2.4612918850960566 0.112151729046501 2.733887916282542 -0.19563421128824304 1.2741008880050495 -0.07892385382380045 0.028413586446996757
-0.13733825876002378 4.537290311175212 -0.016972689796005764 0.011712935037866174 -0.6232071270874843 0.16483929047680082 -0.10350748620852816 0.22202835827103054
-1.4752423207596528 0.04463793877934293 -0.9814073539154894 -0.20559854040237605 -0.5987454083126513 -0.19137264140637447 0.27206290893419754 0.4546971017258183
0.3474779156624875 -0.23647401728292355 0.028663970967359065 -1.1563258326531867 -0.20491349389398666 -0.49810409520973264 0.46452323353121644 -0.4779191944146323
0.13869219903404922 0.26495061137125 -0.30641230584511775 -0.09802700488580804 0.2695567985801273 0.21863487946389776 -0.0768315035809105 0.09223426046847655
1.1930920038081454 0.10431042012830696 0.06409370703531274 0.11499286368058984 3.1999161291660556 -0.7981460172824203 -0.1735565119047708 0.40144308042862376
-0.1740515233275206 0.08537085666926997 0.005485926298158747 0.06265319710651283 0.11946378671470748 -0.009330227247469172 0.09983375518242903 0.07447149981106145
-0.31274643023849447 -4.817370864583027 -0.07162630370641515 0.1705352886650397 -0.3132844752250297 -0.1914223313439091 -0.41960894573543234 -0.03138234346979664
2.342868056982625 -0.06510682969667621 0.8204376507777833 0.2610012702939277 0.35477360674520786 -0.04864755515972608 -0.11543652690489685 -0.34174645769209994
-1.209827261470005 1.5582646855025928 0.0643165759659073 1.2590101256266546 -0.21254787271682954 0.41317698282083465 -0.30287955552186424 0.0587316473952588
-0.39008635397594793 -1.4999938719216765 0.08838666129397417 0.2882113417971814 -0.7892683680425384 -0.43007589082575703 -1.3648065844653756 0.06369061676590652
-0.6942265303482319 -0.046523639839696186 -0.7390925241933194 -0.06326361457752219 0.11633407570442585 -0.044615954376790945 -0.03636745226846089 -0.5378072713839438
0.10210219648437008 -0.36522977387266264 -0.09513104591379787 0.14266235335594604 -0.33080356283261025 0.26612301972304814 0.06750643230584918 -0.8049819945821504
-0.46431046752994015 2.2799969526339434 -0.3420627831652535 -0.036512071457298616 0.9191513960330548 1.0599159701267482 -0.37335497416261104 0.07046257055253034
6.9135206021117614 -0.4183328500589085 0.27046085784110113 -0.3284720483448712 -0.2887550032022527 0.39043354090637306 -0.058416292966748495 -0.5798724298632882
-0.6443758971138261 -0.051208514974309206 -0.3185429365124841 0.14560164069256154 -0.07057843553127244 -0.09902473000765578 -0.6930360074085644 0.49994085818378914
0.1086609509432973 0.7308275975285854 0.08448118684385127 -0.030532871610043946 0.6086927203832911 -0.31697075074602055 -0.14434959324865554 -0.01557599873311771
0.5937810789449879 0.09718314109273644 -0.23060297817558237 0.05953846072815855 -0.4229088011479515 0.040821149341749595 0.07776505191591093 0.06587938124469897
-0.5387899199443119 0.28071759435829824 -0.006606606840843434 0.21071724391894955 0.0728150363540218 0.4552820237122279 0.08516085956515605 0.008148172414985983
-0.006114704399444482 -0.05258802040745301 0.1868225580310297 0.23050767066904473 -0.007847239510664194 0.3232477156067953 0.3965780377123777 -0.6087538612746832
-0.7313496733020561 -0.2538132087811361 0.014003712736209031 -0.28090235245357653 0.530865247430381 -0.22293592369326787 0.1830788374360437 -0.9238048775139776
-0.26833765147072414 0.041145547632110896 0.1787634524483956 0.06258474644474427 0.24861728402590172 -0.043724967566888914 -0.05698736420129778 -0.6088093473150314
-0.349139051037318 0.5466266120337702 -0.003931474416530177 0.22771520174129403 0.0671183137591625 -0.03505715342811304 0.6232712791650755 -0.12313458311873095
-0.012818445323360171 -0.3848943155195451 0.038628271389525536 -0.2553049934875604 -0.16430875034308626 0.7244158671849674 0.3469399666815006 -0.6218063928732099
0.03973485935581527 0.021449541095199958 0.11663219814070697 -0.014720502077263782 -0.09127868307959695 -0.03804659929013699 -0.20824951004421538 -0.3567520154108339
-0.18444549882780847 0.07685758987520949 0.032712897576148904 -0.32178809280930104 -0.19383862841820093 0.049396457415390616 0.1412156174849016 0.47292379529727824
0.09910831056900718 0.07895707908980698 -0.011153151106851672 -0.15273574373200954 0.07190262392304755 -0.0415809901955798 0.10568021649301378 0.1548357846817665
-0.003200383209731889 -0.0020672983463450472 1.0043634227169327 -0.04231224373122412 -0.24650746381984662 0.01643794906102026 0.18118475933147013 0.3528124378332216
-0.2863033012820967 -0.22456240291124357 -0.6862564628327561 0.03273436972680164 -0.017034957761650156 0.015113853022896069 0.22060034279035912 -0.015579485047355401
-0.07833687300546309 -0.04036683924632577 0.04405728974608325 0.9581534546903717 -0.03127942392732608 0.15511245089507678 0.3754484205648276 0.30923633985530374

linear4.bias f8 [12]
00000000: 6d57 479c a429 e8bf 75a1 c78a f6ea e7bf
00000010: a69d 0f9d edff 00c0 2eb4 d044 399c dcbf
00000020: b814 862d 848d febf e729 7e56 88a6 ce3f
00000030: 13a0 e746 7471 a53f a83e 04c2 9b0a febf
00000040: cee1 2318 5037 b0bf 2b39 7e8f 5b41 d0bf
00000050: 2265 e000 4e6b 933f 908b d31e 6e26 f6bf
-0.7550833751981664 -0.747432013563453 -2.1249649305716103 -0.44703513832320396 -1.9095498827239634 0.23945717070849 0.04188121190583174 -1.8775899485371301
-0.06334400739058951 -0.25398911488527415 0.018964022449016522 -1.384382362761901

linear5.weight f8 [6, 12]
00000000: 0714 cec2 c3e6 f23f 3cff 3df8 7dbf 90bf
00000010: a863 9c94 7fa7 f83f fc7f 4647 239a fdbf
00000020: bd9b 87cc 4bd7 c73f 77ee b47e 4a18 a23f
00000030: 5c88 5abd e8b4 f6bf 17cf bf05 1581 d53f
00000040: 5ed3 8a5d da09 c23f f70b 5e8a 9136 b4bf
00000050: cbb2 d58f 46b6 893f a872 9656 80a7 ff3f
00000060: fd92 4e0a b868 8fbf d8e8 c435 28e2 b1bf
00000070: aae4 afbb d56b ab3f f720 bae3 2120 9d3f
00000080: 0354 509e 6005 92bf af1f 9ae7 b39f aa3f
00000090: cdd4 ee4c 07b1 a3bf dac6 7bc0 70d3 a43f
000000a0: e89f de62 d38f a33f 36bd f3f3 80d8 bd3f
000000b0: 5a0e 4dbc 3db6 c3bf 170d 46e5 f7a0 5ebf
000000c0: 1fad 734c 9803 e0bf 8784 a2b1 30cd dfbf
000000d0: f881 b981 17a7 943f ec00 59e6 d3d9 ee3f
000000e0: 575a a261 3198 e0bf 3f96 ea06 f799 c43f
000000f0: e452 bdeb 157c c4bf 89d9 fb44 b366 d0bf
00000100: 313c 9870 da28 c53f a0ad 0c38 b4cc c13f
00000110: f3f5 cfd0 f928 b33f 9ebb 50c0 f981 e13f
00000120: 6cd6 3b30 e0de 713f 052d d97b d029 ca3f
00000130: db55 5127 a84d ec3f 14d7 df2c 8003 8abf
00000140: 04a3 a7c9 a880 ee3f eaa3 da7b d4ba 873f
00000150: 1911 2e60 d54d a13f e6a5 985c 691a e3bf
00000160: 88a2 7143 4b00 a43f ff94 9f90 8422 e4bf
00000170: acfd e0a7 5f9d e5bf e7ac 20f8 da20 853f
00000180: c285 51e8 ff85 45bf 34b0 e388 4999 b4bf
00000190: c575 14e7 b165 9c3f ff7b 8a3c a9a6 663f
000001a0: 84a8 5225 d52f d0bf 50d2 aa57 b3d6 a8bf
000001b0: 582c da0d f55f 58bf 811e 3869 298c d9bf
000001c0: 6332 259c 771c e13f b58f 1ba9 136b ca3f
000001d0: 7b38 008e 0569 e6bf 51df 3257 df18 80bf
000001e0: 8f14 4968 53e4 61bf be98 f734 08be b2bf
000001f0: 3dad 3970 11ce c43f 18e8 3087 85e7 763f
00000200: 03d9 0a92 936b d1bf 7aa4 0f37 dd5f b2bf
00000210: 7958 8b2d e689 7abf f534 5ad6 ac60 d6bf
00000220: 2f34 b11b 0f78 e43f 97c6 5dec dc26 e2bf
00000230: 714c 54d2 bba6 d93f 6e80 6c08 0c6f 80bf
1.18133903594685 -0.01635548427248 1.5408931546319113 -1.8501313003725945 0.18625781523516408 0.03534157559121536 -1.4191672703386962 0.3360035473008209
0.14092568938726918 -0.07895764949903127 0.012554694427956111 1.9783938772517704 -0.015336454214613488 -0.06985713303302832 0.053557089959164486 0.028442887806279207
-0.01759863821287767 0.05199968530820286 -0.0384599954044603 0.04067566251423012 0.038206678217932055 0.11658483463155708 -0.15399905866989877 -0.0018694325309248133
-0.5004388325882337 -0.4968988165583785 0.020168654721034657 0.9640902995088516 -0.5185782343786042 0.16094863736832285 -0.16003679285736105 -0.2562683271093183
0.16530924318110032 0.13905956970971278 0.07484399173696214 0.5471161609801702 0.004362941490162347 0.20440107390673048 0.8844795959400317 -0.012701989526231063
0.9532054842539712 0.011586818723417342 0.033796947470394474 -0.5969740685006257 0.039064743025680804 -0.6292136025118963 -0.6754606512912935 0.010316572854284846
-0.0006568431423483111 -0.08046397773767994 0.02773168537998118 0.002765017070785358 -0.2529194702607429 -0.048513035251208536 -0.0014877217394395816 -0.3991797950297738
0.534725003215112 0.20639272458276783 -0.7003200314955075 -0.007859940384477378 -0.002184069542894358 -0.07321215909141451 0.16253869991064987 0.005591889947988114
-0.27219094526243753 -0.07177527040734502 -0.006479167110873368 -0.3496505826268071 0.6396556416381197 -0.5672440163163682 0.4008016160962092 -0.008024305350375207

linear5.bias f8 [6]
00000000: 9e6d 630e 6134 d1bf 63df 2cdd 47ab f3bf
00000010: 45b5 84d2 b5ff d0bf 68d4 3b15 8bbd f9bf
00000020: dc76 23c3 d0bc c6bf d182 8e49 078f c2bf
-0.26882196812740655 -1.2293165816936031 -0.26560731466709725 -1.6087752179567136 -0.17763719108818676 -0.14498988238940183
